AI/Code/Text2Emotion/Models/text_emotion_model.tflite (tflite, 462860 bytes, 14 tensors)

model_2/encoder_2/attention_pool_reduce_4/padded_masked_var_len_conv_8/var_len_batch_normalization_14/batchnorm/add_1;model_2/encoder_2/attention_pool_reduce_4/padded_masked_var_len_conv_8/var_len_batch_normalization_14/batchnorm/mul_1;encoder_2/attention_pool_reduce_4/padded_masked_var_len_conv_8/bias;model_2/encoder_2/attention_pool_reduce_4/padded_masked_var_len_conv_8/BiasAdd;model_2/encoder_2/attention_pool_reduce_4/padded_masked_var_len_conv_8/var_len_batch_normalization_14/batchnorm/mul;model_2/encoder_2/attention_pool_reduce_4/padded_masked_var_len_conv_8/var_len_batch_normalization_14/batchnorm/sub f4 [64]
-0.4313999 0.5420298 0.35488936 0.31557426 -0.047572285 0.012029465 -0.50459725 0.3694388
0.051822346 0.11864616 -0.36920935 -0.034711637 0.02806468 0.118994676 0.18177848 0.17269161
0.503147 -0.50629395 0.38299602 0.52581143 0.54593045 0.049464047 0.36813992 -0.24810594
0.37375724 0.22137327 0.11024225 0.46943238 -0.29795748 -0.24063373 0.20758432 -0.3425387
0.35590595 0.33152542 0.2790808 0.15513258 -0.18045191 -0.33431083 -0.059549473 -0.5550984
-0.40501672 0.4804486 -0.31970662 0.06847435 -0.4349814 0.29790553 0.40977693 -0.6184043
-0.4360301 -0.38306943 -0.05980514 -0.5612472 -0.08884041 0.2576068 0.12277261 -0.25467908
-0.36436188 -0.03125274 0.36619425 -0.5170525 -0.34431034 -0.32299346 -0.06421222 -0.16971807
00000000: 73e0 dcbe 77c2 0a3f 0fb4 b53e f392 a13e
00000010: 28db 42bd 3c17 453c 492d 01bf 1527 bd3e
00000020: ab43 543d c2fc f23d 0209 bdbe ca2d 0ebd
00000030: e6e7 e53c 7bb3 f33d 2324 3a3e 12d6 303e
00000040: 3ece 003f 7b9c 01bf 0e18 c43e 949b 063f
00000050: 19c2 0b3f d09a 4a3d d67c bc3e 7c0f 7ebe
00000060: 1c5d bf3e adaf 623e b0c6 e13d 7159 f03e
00000070: e28d 98be b068 76be fc90 543e 3c61 afbe
00000080: 4e39 b63e b3bd a93e aee3 8e3e 13db 1e3e
00000090: 63c8 38be ca2a abbe 26ea 73bd ee1a 0ebf
000000a0: 5a5e cfbe 5cfd f53e 96b0 a3be 483c 8c3d
000000b0: e2b5 debe 1387 983e 48ce d13e bf4f 1ebf
000000c0: 563f dfbe ad21 c4be 3cf6 74bd e6ad 0fbf
000000d0: f6f1 b5bd 0ae5 833e 3570 fb3d 4c65 82be
000000e0: a48d babe e002 00bd d07d bb3e 8d5d 04bf
000000f0: 7249 b0be 665f a5be b281 83bd 93ca 2dbe

model_2/encoder_2/attention_pool_reduce_5/padded_masked_var_len_conv_10/var_len_batch_normalization_16/batchnorm/add_1;model_2/encoder_2/attention_pool_reduce_5/padded_masked_var_len_conv_10/var_len_batch_normalization_16/batchnorm/mul_1;encoder_2/attention_pool_reduce_5/padded_masked_var_len_conv_10/bias;model_2/encoder_2/attention_pool_reduce_5/padded_masked_var_len_conv_10/BiasAdd;model_2/encoder_2/attention_pool_reduce_5/padded_masked_var_len_conv_10/var_len_batch_normalization_16/batchnorm/mul;model_2/encoder_2/attention_pool_reduce_5/padded_masked_var_len_conv_10/var_len_batch_normalization_16/batchnorm/sub f4 [64]
0.30267724 0.14648905 -0.12780607 0.08028151 -0.37415287 -0.5743621 0.30351663 0.3328823
-0.24605912 -0.23725946 0.36392117 0.22230352 0.119022265 -0.1227322 0.6483585 0.006639056
0.4352853 0.0037864372 0.64031833 -0.4129827 0.06122169 -0.3053131 0.22922215 0.43875724
-0.19127934 0.579909 -0.5155107 0.094517864 -0.3559223 0.03545253 0.11623317 0.22923653
-0.60721076 -0.0884031 0.5146621 -0.14815626 0.4056901 0.22902495 0.00447179 -0.20447803
0.111464605 0.44853455 -0.15290813 -0.23399585 -0.16283435 0.15256542 0.19653766 0.03516865
-0.10003964 -0.30042055 0.39465633 0.18155384 0.18050335 -0.13881639 0.21343884 0.097471684
-0.14436871 -0.0740686 0.2053734 -0.6149291 -0.5584076 0.18980014 -0.0042680018 0.08163765
00000000: 83f8 9a3e 3a01 163e 98df 02be a26a a43d
00000010: f790 bfbe 6509 13bf 8866 9b3e 8c6f aa3e
00000020: ecf6 7bbe 25f4 72be e053 ba3e 89a3 633e
00000030: f2c1 f33d 055b fbbd d3fa 253f 708c d93b
00000040: b7dd de3e e025 783b e7eb 233f 7872 d3be
00000050: 98c3 7a3d 0052 9cbe 36b9 6a3e caa4 e03e
00000060: bbde 43be eb74 143f 82f8 03bf 9592 c13d
00000070: 733b b6be ac36 113d a80b ee3d fbbc 6a3e
00000080: 2a72 1bbf af0c b5bd e5c0 033f 46b6 17be
00000090: 9db6 cf3e 8485 6a3e 1888 923b b062 51be
000000a0: 8e47 e43d 52a6 e53e f393 1cbe 9c9c 6fbe
000000b0: 0cbe 26be 1c3a 1c3e 2b41 493e 010d 103d
000000c0: 95e1 ccbd b9d0 99be 6510 ca3e 40e9 393e
000000d0: dfd5 383e e225 0ebe b68f 5a3e 3c9f c73d
000000e0: 64d5 13be 47b1 97bd 684d 523e fe6b 1dbf
000000f0: cdf3 0ebf f85a 423e 98da 8bbb a431 a73d

model_2/encoder_2/attention_pool_reduce_4/padded_masked_var_len_conv_9/var_len_batch_normalization_15/batchnorm/add_1;model_2/encoder_2/attention_pool_reduce_4/padded_masked_var_len_conv_9/var_len_batch_normalization_15/batchnorm/mul_1;encoder_2/attention_pool_reduce_4/padded_masked_var_len_conv_9/bias;model_2/encoder_2/attention_pool_reduce_4/padded_masked_var_len_conv_9/BiasAdd;model_2/encoder_2/attention_pool_reduce_4/padded_masked_var_len_conv_9/var_len_batch_normalization_15/batchnorm/mul;model_2/encoder_2/attention_pool_reduce_4/padded_masked_var_len_conv_9/var_len_batch_normalization_15/batchnorm/sub f4 [64]
-0.72518 -0.6365177 -0.7757213 0.7496865 0.51652205 0.8791268 0.67635006 -0.6740319
-0.7939053 0.4225699 0.5457294 -0.83505857 0.77274716 -0.7012911 0.5514024 -0.77814424
-0.6435591 -0.7348638 -0.63852406 -0.40531215 0.68294084 0.6858866 -0.6502964 -0.6981202
0.5793108 -0.79548997 -0.7428119 0.59724677 -0.2958691 0.06490372 -0.44991386 -0.5526485
-0.6789555 0.7920862 -0.69582385 -0.5683245 0.6432177 0.7483593 -0.77115655 0.65675867
-0.6954414 -0.7843704 0.7330648 -0.44751665 0.36039746 -0.6510353 0.6982953 0.5452013
-0.66363513 0.4581202 0.5255137 0.51407367 -0.46317726 -0.733186 -0.8120043 -0.8441583
-0.63598865 0.5669245 0.08745186 -0.6489419 0.62785506 -0.7468033 -0.77603036 -0.3521039
00000000: 65a5 39bf d3f2 22bf ac95 46bf 74eb 3f3f
00000010: ca3a 043f 740e 613f 4725 2d3f 5b8d 2cbf
00000020: 613d 4bbf 155b d83e ecb4 0b3f 66c6 55bf
00000030: c2d2 453f d087 33bf b528 0d3f 7634 47bf
00000040: 4ac0 24bf 0920 3cbf 5076 23bf 1385 cfbe
00000050: 36d5 2e3f 4496 2f3f d379 26bf 01b8 32bf
00000060: b64d 143f 3ba5 4bbf ec28 3ebf 2ae5 183f
00000070: 287c 97be 3eec 843d 1c5b e6be 5f7a 0dbf
00000080: 07d0 2dbf 29c6 4a3f 8321 32bf b77d 11bf
00000090: eaa9 243f 7a94 3f3f 846a 45bf 5621 283f
000000a0: 7308 32bf 80cc 48bf 22aa 3b3f e720 e5be
000000b0: 0486 b83e 40aa 26bf 7bc3 323f 5092 0b3f
000000c0: fee3 29bf bb8e ea3e 1188 063f 559a 033f
000000d0: 9225 edbe 14b2 3bbf 84df 4fbf c21a 58bf
000000e0: 27d0 22bf f721 113f f619 b33d 0e21 26bf
000000f0: 1cbb 203f 802e 3fbf eda9 46bf f646 b4be

model_2/encoder_2/attention_pool_reduce_5/padded_masked_var_len_conv_11/var_len_batch_normalization_17/batchnorm/add_1;model_2/encoder_2/attention_pool_reduce_5/padded_masked_var_len_conv_11/var_len_batch_normalization_17/batchnorm/mul_1;encoder_2/attention_pool_reduce_5/padded_masked_var_len_conv_11/bias;model_2/encoder_2/attention_pool_reduce_5/padded_masked_var_len_conv_11/BiasAdd;model_2/encoder_2/attention_pool_reduce_5/padded_masked_var_len_conv_11/var_len_batch_normalization_17/batchnorm/mul;model_2/encoder_2/attention_pool_reduce_5/padded_masked_var_len_conv_11/var_len_batch_normalization_17/batchnorm/sub f4 [64]
-0.74086547 -0.76866055 -0.77849 -0.7226631 0.6865554 0.7665735 0.510671 -0.7264801
0.8024488 -0.8207811 0.773842 0.52571744 0.7331775 -0.85391444 0.7459867 -0.7549024
-0.7970296 0.7638762 0.6772118 -0.48469076 -0.85742193 -0.6024947 -0.7540329 0.69884115
-0.9550286 -0.6616517 0.7789961 -0.8373733 -0.6642823 -0.80481887 -0.6208912 0.765026
-0.63217676 -0.8274826 0.68295413 -0.2513218 0.71876884 0.6490643 -0.7526367 0.5699843
0.7425663 -0.5879475 0.7214513 0.66681504 0.5114161 0.7262871 0.7091234 -0.8651727
-0.78817177 0.58276033 -0.81482625 -0.82999516 -0.7955748 0.6042322 0.33045492 -0.5868296
-0.86068803 -0.8473043 -0.78688556 0.6605556 -0.73522556 0.6051742 -0.7213385 -0.7857957
00000000: 5ca9 3dbf f0c6 44bf 1f4b 47bf 7300 39bf
00000010: 18c2 2f3f 293e 443f 56bb 023f 9afa 39bf
00000020: 496d 4d3f b61e 52bf 821a 463f 6b95 063f
00000030: 85b1 3b3f 239a 5abf fcf8 3e3f 4941 41bf
00000040: 220a 4cbf 648d 433f c15d 2d3f 6329 f8be
00000050: 0180 5bbf 183d 1abf 4d08 41bf 41e7 323f
00000060: c17c 74bf 0162 29bf 4a6c 473f 195e 56bf
00000070: 680e 2abf 9c08 4ebf baf2 1ebf bed8 433f
00000080: 56d6 21bf e6d5 53bf 15d6 2e3f 40ad 80be
00000090: 3c01 383f 1429 263f ccac 40bf 7eea 113f
000000a0: d318 3e3f ba83 16bf 08b1 383f 64b4 2a3f
000000b0: 2aec 023f f4ed 393f 1c89 353f f57b 5dbf
000000c0: a0c5 49bf c82f 153f 7498 50bf 907a 54bf
000000d0: caaa 4bbf f6ae 1a3f 6331 a93e 773a 16bf
000000e0: 0d56 5cbf efe8 58bf 5571 49bf 2c1a 293f
000000f0: be37 3cbf b2ec 1a3f a4a9 38bf e829 49bf

model_2/encoder_2/base_q_dense_2/batch_normalization_2/batchnorm/add_1 f4 [28]
-0.7981617 -0.83205235 -0.64478934 -0.56457245 -0.54693884 -0.6091715 -0.56569844 -0.5760728
-0.609192 -0.5967275 -0.5668203 -0.6076045 -0.61988187 -0.63734764 -0.6159156 -1.0180737
-0.62557435 -0.69359344 -0.774072 -0.6366961 -0.7233963 -0.6461426 -0.5907621 -0.65252817
-0.7035329 -0.6442109 -0.6094545 -0.3478143
00000000: 5354 4cbf 6201 55bf ea10 25bf d287 10bf
00000010: 2f04 0cbf aaf2 1bbf 9dd1 10bf 8279 13bf
00000020: 02f4 1bbf 22c3 18bf 231b 11bf f88b 1bbf
00000030: 94b0 1ebf 3729 23bf a5ac 1dbf 3d50 82bf
00000040: a425 20bf 578f 31bf 9529 46bf 84fe 22bf
00000050: 8030 39bf 9a69 25bf 2f3c 17bf 160c 27bf
00000060: bb1a 34bf 01eb 24bf 3605 1cbf b714 b2be

model_2/encoder_2/base_q_dense_var_len_4/re_lu_1/Relu;model_2/encoder_2/base_q_dense_var_len_4/var_len_batch_normalization_12/batchnorm/add_1 f4 [64]
-0.2657026 -0.072629064 -0.60109186 -0.2733858 -0.609296 -0.351421 -0.38931715 -0.39898297
-0.26232588 -0.24471502 -0.32384598 -0.19403136 -0.53784853 -0.41144878 -0.2358249 -0.45902607
-0.23060134 -0.062803164 -0.38296154 -0.279163 -0.5862726 -0.8352779 -0.23104571 -0.2284594
-0.22022475 -0.41059127 -0.24169604 -0.45468196 -0.58691657 -0.39361137 -0.27158684 -0.2989124
-0.4545146 -0.60763764 -0.19987632 -0.51428777 -0.30684626 -0.48357132 -0.5273875 -0.4514823
-0.4803811 -0.3264649 -0.4005646 -0.40671635 -0.27818334 -0.59954077 -0.5166922 -0.43882984
-0.5776889 -0.37236315 -0.8293327 -0.69165564 -0.4623505 -0.8072484 -0.39135194 -0.48129654
-0.29803154 -0.5301063 -0.47855157 -0.5181554 -0.52888584 -0.6290573 -0.2460801 -0.31660968
00000000: 2c0a 88be 8cbe 94bd 28e1 19bf 39f9 8bbe
00000010: d3fa 1bbf 74ed b3be 9454 c7be 7f47 ccbe
00000020: 944f 86be 9396 7abe 24cf a5be 28b0 46be
00000030: 71b0 09bf 6aa9 d2be 157c 71be 7705 ebbe
00000040: c222 6cbe f29e 80bd 8913 c4be 74ee 8ebe
00000050: f615 16bf c6d4 55bf 3f97 6cbe 43f1 69be
00000060: 9982 61be 0539 d2be 2b7f 77be 13cc e8be
00000070: 2a40 16bf 6e87 c9be 6e0d 8bbe 0c0b 99be
00000080: 23b6 e8be 248e 1bbf 61ac 4cbe 5da8 03bf
00000090: f41a 9dbe a996 f7be de02 07bf b028 e7be
000000a0: 83f4 f5be 6826 a7be ce16 cdbe 203d d0be
000000b0: 0c6e 8ebe 817b 19bf f145 04bf 4eae e0be
000000c0: 6be3 13bf 62a6 bebe 264f 54bf 5810 31bf
000000d0: 34b9 ecbe d5a7 4ebf 485f c8be 806c f6be
000000e0: 9797 98be 0cb5 07bf b604 f5be d5a5 04bf
000000f0: 1065 07bf e609 21bf 6cfc 7bbe aa1a a2be

model_2/encoder_2/base_q_dense_var_len_5/re_lu_1/Relu;model_2/encoder_2/base_q_dense_var_len_5/var_len_batch_normalization_13/batchnorm/add_1 f4 [64]
-0.12163091 -0.21135896 -0.1529548 -0.18060811 -0.04630036 0.02109288 -0.07131636 0.025035245
0.11765017 0.010649458 -0.20164748 -0.004733611 -0.13344641 -0.13874814 -0.028971285 -0.18955573
0.03771343 0.07376045 -0.11952833 -0.12644085 -0.22733326 -0.1221705 -0.17257911 -0.0021297792
-0.029910002 0.012740798 -0.20210147 -0.15929027 -0.05709909 -0.11320327 -0.08916873 0.055003986
-0.1647614 -0.18924955 0.06270782 -0.20927311 -0.019080438 0.11306506 -0.29559213 -0.18058099
-0.2124067 0.027782764 -0.023263924 -0.072594695 0.029630791 -0.011718245 -0.060957402 -0.19383281
0.14447762 -0.19181901 -0.04552722 -0.26653856 -0.059744004 -0.039624073 -0.089831434 -0.16178054
-0.024415925 -0.18444195 -0.02674168 -0.12651956 -0.09558555 -0.3575809 -0.23623721 -0.023444101
00000000: a019 f9bd 7c6e 58be 2fa0 1cbe 55f1 38be
00000010: 72a5 3dbd faca ac3c 500e 92bd b716 cd3c
00000020: 93f2 f03d 107b 2e3c ad7c 4ebe 681c 9bbb
00000030: 2da6 08be fe13 0ebe 3055 edbc e61a 42be
00000040: 6679 1a3d b80f 973d 45cb f4bd b679 01be
00000050: 0dca 68be 8734 fabd 94b8 30be c493 0bbb
00000060: d205 f5bc c8be 503c b0f3 4ebe fd1c 23be
00000070: bce0 69bd 1ed7 e7bd 189e b6bd dc4b 613d
00000080: 36b7 28be a2ca 41be f56c 803d b14b 56be
00000090: 944e 9cbc a78e e73d da57 97be 39ea 38be
000000a0: 2481 59be ae98 e33c fc93 bebc 87ac 94bd
000000b0: 46bc f23c e2fd 3fbc 78ae 79bd 1c7c 46be
000000c0: f1f1 133e 346c 44be c07a 3abd be77 88be
000000d0: 21b6 74bd da4c 22bd 8bf9 b7bd cca9 25be
000000e0: e803 c8bc 5ade 3cbe 5e11 dbbc 588e 01be
000000f0: 5bc2 c3bd d814 b7be 2be8 71be d80d c0bc

model_2/encoder_2/attention_pool_reduce_4/padded_masked_var_len_conv_8/Conv2D f4 [64, 1, 2, 64]
0.06351851 0.14655127 0.0931431 0.06750089 -0.051311407 0.08404993 0.017685674 -0.056233887
-0.07125492 0.098336436 -0.013191598 0.051412724 -0.03179196 0.14136137 0.042797994 0.07137987
0.14058518 -0.08777936 0.03246252 0.05260166 -0.054572094 0.05487195 0.0040621026 -0.06047155
0.15743487 0.023028597 -0.094067715 0.002458282 0.019976081 -0.1086974 0.118906304 0.061567027
0.05495217 -0.09820918 0.06049419 -0.104895554 -0.06768234 -0.05718497 -0.11739484 0.061065678
0.07523864 -0.091477156 -0.013795659 0.023981007 0.15476942 -0.11191459 0.014385246 -0.11874191
0.058568142 0.09805387 -0.12842178 -0.07422155 -0.039262023 0.07565591 -0.100825936 -0.034651548
0.028851073 -0.0068747946 -0.0737963 -0.10014644 -0.08677877 -0.07434603 -0.11367775 0.050070874
0.061251577 0.080631204 -0.0578279 -0.12197038 0.13906926 -0.08211124 -0.0005428317 0.13373356
0.11641951 0.14331934 0.079153635 0.054705746 0.012818189 0.05473709 0.11156596 0.12651302
-0.0053778645 0.08478744 0.069483906 0.13075475 -0.0027135254 0.13916437 0.061291706 -0.040738977
0.12378556 -0.052434992 -0.061282486 -0.09472879 0.10400788 -0.027231812 -0.022406092 -0.03945959
0.08860008 -0.08826686 0.098329276 -0.10316733 0.121912144 -0.03355898 -0.15957029 -0.051583827
-0.04152088 -0.06234618 0.10850757 0.032340895 0.031495295 0.030883469 0.142276 0.13476335
0.004215594 0.13188587 0.07021556 0.20589828 0.08020188 0.07098703 0.08705606 -0.049677208
0.027377136 -0.08801941 0.10439102 0.1614832 0.11179767 -0.07434908 0.13781896 0.101325706
-0.031495966 0.032563772 0.01874903 -0.08171453 -0.16383503 0.0395504 -0.16376744 -0.076689616
-0.12957624 -0.049850088 -0.026522355 -0.06457496 -0.02707039 0.0009825978 0.03607597 -0.051555872
-0.041873228 0.13463074 -0.01862367 0.010098815 -0.034452382 -0.12209085 0.070576504 -0.01272003
-0.03547857 -0.14716344 0.101624385 0.045237772 0.016553557 0.06640877 -0.016901461 -0.106504865
-0.20022976 0.046173625 -0.040991288 -0.0037377316 -0.12618347 0.13122535 0.00056676846 -0.033932697
0.050829228 -0.019907678 -0.16132925 0.07479875 -0.07404509 -0.03144308 0.08475007 -0.01866915
-0.028983494 -0.2451027 -0.11028052 0.06581692 0.08427529 -0.089691974 0.002429928 -0.12631904
-0.03875711 -0.09914218 -0.040924672 -0.052681882 0.1031433 0.08919671 0.09663655 -0.11815387
0.05736 -0.047260486 0.10202104 -0.13474527 -0.061926447 0.016837323 -0.084120594 -0.12450953
-0.033846766 -0.011828208 0.053870503 -0.0965929 0.09479612 -0.07397284 0.004233201 0.112480715
-0.13477291 -0.023945704 0.09209191 -0.009073086 -0.035967153 0.130712 0.07152135 -0.09060605
0.030698732 0.045938622 -0.03254696 -0.033111814 0.08699686 0.13225067 -0.10670873 -0.11301583
-0.14170139 0.0176459 -0.116550654 -0.16508746 -0.020479772 -0.030087287 -0.13384803 -0.09375056
0.09134222 0.02518444 -0.1127649 -0.085679114 0.052903265 -0.097832516 -0.03560312 -0.11287241
0.0422987 -0.07598566 -0.026650295 0.11811108 -0.23036167 -0.10169911 -0.12525298 -0.08140559
-0.102259375 -0.022993093 0.0014418298 -0.07879669 -0.025414616 0.11872852 -0.12563352 0.102104545
00000000: fe15 823d 8911 163e cfc1 be3d e83d 8a3d
00000010: e92b 52bd 5f22 ac3d 8ce1 903c 8155 66bd
00000020: 19ee 91bd 9d64 c93d 9221 58bc 2696 523d
00000030: 4938 02bd 09c1 103e f34c 2f3d 9c2f 923d
00000040: 90f5 0f3e aac5 b3bd 6bf7 043d d774 573d
00000050: fd86 5fbd 69c1 603d 631b 853b 04b1 77bd
00000060: 9b36 213e 78a6 bc3c 93a6 c0bd 211b 213b
00000070: e1a4 a33c be9c debd 2685 f33d b52d 7c3d
00000080: 8715 613d e521 c9bd c1c8 773d 7bd3 d6bd
00000090: 0a9d 8abd c93a 6abd b56c f0bd 0120 7a3d
000000a0: b716 9a3d 6058 bbbd 3007 62bc d173 c43c
000000b0: e07b 1e3e 7a33 e5bd 18b0 6b3c f52e f3bd
000000c0: 26e5 6f3d 78d0 c83d 0081 03be 7801 98bd
000000d0: 37d1 20bd 7cf1 9a3d d47d cebd c8ee 0dbd
000000e0: 1659 ec3c f545 e1bb 8422 97bd 9419 cdbd
000000f0: 11b9 b1bd bb42 98bd e1cf e8bd 1e17 4d3d
00000100: efe2 7a3d f921 a53d f3dc 6cbd 9bcb f9bd
00000110: 2c68 0e3e f029 a8bd d24c 0eba 73f1 083e
00000120: 5a6d ee3d 4ec2 123e 4d1b a23d 2213 603d
00000130: 6203 523c 0034 603d b27c e43d a18c 013e
00000140: cc38 b0bb 0aa5 ad3d 944d 8e3d 93e4 053e
00000150: 67d5 31bb 1b81 0e3e 030d 7b3d eadd 26bd
00000160: 4983 fd3d 13c6 56bd 5803 7bbd 2b01 c2bd
00000170: 1502 d53d 4015 dfbc fb8c b7bc 61a0 21bd
00000180: f573 b53d 41c5 b4bd dc60 c93d 6549 d3bd
00000190: 13ad f93d 2475 09bd 6566 23be 9049 53bd
000001a0: cc11 2abd b55e 7fbd 3839 de3d e377 043d
000001b0: 3601 013d 54ff fc3c cdb0 113e 67ff 093e
000001c0: f722 8a3b 170d 073e 2dcd 8f3d 00d7 523e
000001d0: e240 a43d a661 913d 734a b23d 547a 4bbd
000001e0: 0446 e03c 8543 b4bd f6ca d53d da5b 253e
000001f0: 2df6 e43d 5544 98bd 6a20 0d3e da83 cf3d
00000200: ea01 01bd 9761 053d 9197 993c f359 a7bd
00000210: 5fc4 27be 9aff 213d a7b2 27be 720f 9dbd
00000220: a2af 04be 9b2f 4cbd 6945 d9bc e03f 84bd
00000230: b9c2 ddbc 83ca 803a 65c4 133d 402c 53bd
00000240: 4383 2bbd a4dc 093e ab90 98bc 8075 253c
00000250: f11d 0dbd c40a fabd 6a8a 903d ac67 50bc
00000260: fa51 11bd 03b2 16be 7220 d03d 3e4b 393d
00000270: 539b 873c 5201 883d ef74 8abc 391f dabd
00000280: 0809 4dbe 8e20 3d3d 7be6 27bd bbf4 74bb
00000290: 3d36 01be f05f 063e 3093 143a 03fd 0abd
000002a0: 4f32 503d 6d15 a3bc 7f33 25be 1630 993d
000002b0: f4a4 97bd 76ca 00bd 7291 ad3d 0cf0 98bc
000002c0: cb6e edbc 34fc 7abe c1da e1bd 05cb 863d
000002d0: 8698 ac3d 6db0 b7bd 6d3f 1f3b c759 01be
000002e0: c6bf 1ebd 0e0b cbbd a1a0 27bd f5c8 57bd
000002f0: cb3c d33d c4ac b63d 62e9 c53d a8fa f1bd
00000300: 52f2 6a3d 3694 41bd 68f0 d03d aafa 09be
00000310: 96a6 7dbd 6dee 893c 6b47 acbd dafe febd
00000320: e8a2 0abd 1acb 41bc 51a7 5c3d 80d2 c5bd
00000330: 7824 c23d 137f 97bd aab6 8a3b 4a5c e63d
00000340: e901 0abe c829 c4bc af9a bc3d 48a7 14bc
00000350: 4b52 13bd 5ed9 053e c979 923d aa8f b9bd
00000360: e87b fb3c 232a 3c3d f64f 05bd 41a0 07bd
00000370: 692b b23d b86c 073e 1b8a dabd d874 e7bd
00000380: 2b1a 11be 228e 903c 1cb2 eebd b00c 29be
00000390: 32c5 a7bc 9d79 f6bc 750f 09be 4b00 c0bd
000003a0: a111 bb3d 994f ce3c 49f1 e6bd 8878 afbd
000003b0: 18b1 583d 6a5c c8bd 94d4 11bd a629 e7bd
000003c0: 6741 2d3d 5f9e 9bbd b851 dabc 39e4 f13d
000003d0: eee3 6bbe 9f47 d0bd 5142 00be f9b7 a6bd
000003e0: 5d6d d1bd 035c bcbc c8fb bc3a 2960 a1bd
000003f0: 5032 d0bc f027 f33d 13a6 00be 301c d13d

model_2/encoder_2/attention_pool_reduce_5/padded_masked_var_len_conv_10/Conv2D f4 [64, 1, 3, 64]
-0.0027005374 -0.015521639 0.07544431 0.04929235 0.11706053 -0.06659732 0.07979926 0.075977236
-0.01923931 -0.052578993 0.08921283 0.03628019 -0.078583784 -0.012597181 -0.07576117 -0.12776913
0.093482114 0.02168565 -0.015395879 -0.13820182 0.033964116 0.21975143 -0.02502598 0.05759411
0.07669165 -0.09885959 0.08111471 -0.07140626 -0.0047770618 -0.08098463 -0.14919022 0.041295428
0.023769379 0.04676126 0.02869696 0.03220014 -0.066303134 -0.10992723 -0.05020346 0.03759744
0.006261667 -0.028181413 0.113204464 -0.007041442 -0.10703225 0.03405899 -0.113160074 -0.05055707
-0.019738125 0.04974447 0.01059788 -0.08100369 -0.07033011 0.06602529 0.0995137 -0.038907792
-0.041070856 0.097256936 -0.09702217 -0.015610266 0.09326655 0.09108242 0.0915785 0.041504916
0.08716936 0.086561695 -0.12456819 0.09592258 -0.1196389 0.13969043 -0.16929387 -0.02153713
0.05880491 -0.06275819 -0.0023069612 -0.07675027 -0.03512248 0.10383259 -0.041665122 0.0910799
0.006220771 0.018869566 0.13995698 0.08373633 -0.0018356475 -0.06604314 -0.06944807 -0.07843562
0.10473548 0.05531353 -0.021831725 -0.08273501 -0.062437426 -0.014535489 0.03246512 -0.03964824
0.10175158 -0.08668385 -0.047362056 -0.1101755 -0.10744435 0.0009359678 -0.0076416177 0.016144976
-0.096988484 -0.024088677 0.04573773 0.044766005 0.078985855 -0.031817086 -0.059291832 0.08783633
-0.08632158 -0.02757197 -0.1203602 -0.043102577 0.0012900854 0.053293515 -0.026452065 0.03189477
0.004234802 0.09974766 -0.13539548 0.01539776 0.042121634 0.099225365 0.0019176032 -0.111448385
0.07586188 0.09631978 -0.045042545 0.049141124 -0.16231996 -0.09188934 0.025198396 -0.06320769
0.048258677 0.011497791 -0.099437624 -0.07088236 0.014142331 0.042303026 -0.09743292 -0.08532561
-0.088981174 -0.15440455 0.097935304 -0.15194552 -0.05640728 -0.19218425 0.046595898 0.07395221
-0.052169774 -0.02623829 -0.029709388 0.026166992 0.07059499 0.095939055 -0.18390429 0.09536202
-0.103174515 -0.07435011 -0.011455121 -0.019685427 -0.11344246 -0.033157513 0.05020807 -0.11353711
0.027138848 -0.07209793 -0.13728954 0.053972162 -0.1376193 -0.045659475 -0.10475725 -0.07105649
0.019106584 -0.10051894 -0.035504486 -0.22961372 -0.0016714709 -0.19049998 -0.062390797 -0.020905383
0.03737108 0.05171119 -0.090662874 0.038693838 0.023987457 0.08552015 -0.085345834 -0.150394
-0.0344595 -0.014213629 0.010576489 -0.012448849 -0.078878306 -0.08078289 -0.0989516 0.11727706
0.012543417 -0.06903759 0.05865281 0.035539363 0.029734261 0.051848542 0.024211757 0.12886809
0.109556854 0.08428996 -0.08914258 -0.022009019 0.10399318 0.1744389 -0.063929915 -0.07053774
-0.06608828 0.105254315 -0.015898643 0.1700172 0.031487398 0.07003603 0.08109364 -0.037896674
0.10556844 0.023383161 -0.026244283 -0.061916735 -0.012262346 0.14548708 -0.0007099292 -0.08181986
0.114526786 0.09300429 -0.03504141 -0.027953802 -0.12289369 -0.0017457347 -0.09448723 0.027116982
0.104632564 0.08502449 0.012097714 -0.061221704 -0.09124547 0.022815678 0.049398363 -0.077501416
-0.07356737 0.063148916 0.030874422 0.047597557 -0.03298049 -0.09269076 -0.09631852 0.08146586
00000000: 80fb 30bb 794e 7ebc 8c82 9a3d c6e6 493d
00000010: 6ebd ef3d 2d64 88bd cb6d a33d f499 9b3d
00000020: c29b 9dbc 125d 57bd 37b5 b63d 899a 143d
00000030: 89f0 a0bd 6864 4ebc ac28 9bbd e9d5 02be
00000040: 8d73 bf3d 1ba6 b13c ff3e 7cbc c784 0dbe
00000050: f51d 0b3d 8506 613e 4903 cdbc cde7 6b3d
00000060: 8310 9d3d e676 cabd 781f a63d 723d 92bd
00000070: e688 9cbb 45db a5bd 52c5 18be 6525 293d
00000080: 00b8 c23c bc88 3f3d e315 eb3c 4be4 033d
00000090: f0c9 87bd 8721 e1bd 25a2 4dbd c6ff 193d
000000a0: ab2e cd3b b5dc e6bc bed7 e73d e6bb e6bb
000000b0: b933 dbbd 7181 0b3d 78c0 e7bd ee14 4fbd
000000c0: d9b1 a1bc dbc0 4b3d bba2 2d3c 43e5 a5bd
000000d0: 3c09 90bd 4438 873d d7cd cb3d c75d 1fbd
000000e0: ea39 28bd a52e c73d 8fb3 c6bd 33c2 7fbc
000000f0: 8802 bf3d 6b89 ba3d 828d bb3d 0f01 2a3d
00000100: d985 b23d 4247 b13d 9b1d ffbd 0f73 c43d
00000110: 3d05 f5bd 020b 0f3e 5f5b 2dbe a36e b0bc
00000120: 6bdd 703d 5e87 80bd 6330 17bb 3f2f 9dbd
00000130: 97dc 0fbd 2ea6 d43d 0ca9 2abd 1988 ba3d
00000140: 9cd7 cb3b 5994 9a3c e250 0f3e f47d ab3d
00000150: 1c9a f0ba a041 87bd ca3a 8ebd dba2 a0bd
00000160: 8e7f d63d 7190 623d 72d8 b2bc f970 a9bd
00000170: 63be 7fbd 4226 6ebc 25fa 043d 3166 22bd
00000180: 2263 d03d 4d87 b1bd b7fe 41bd b1a3 e1bd
00000190: c90b dcbd bc5b 753a 8966 fabb 7842 843c
000001a0: e6a1 c6bd 9e55 c5bc 7c57 3b3d 8f5c 373d
000001b0: 56c3 a13d a252 02bd fedb 72bd 89e3 b33d
000001c0: 5ec9 b0bd 9dde e1bc 697f f6bd 548c 30bd
000001d0: 1518 a93a 4d4a 5a3d 00b2 d8bc 17a4 023d
000001e0: 18c4 8a3b 8048 cc3d 1da5 0abe e346 7c3c
000001f0: bc87 2c3d ab36 cb3d 1658 fb3a 0d3f e4bd
00000200: 795d 9b3d 4e43 c53d 887e 38bd 3448 493d
00000210: 3437 26be 7a30 bcbd de6c ce3c 0973 81bd
00000220: e4aa 453d 3b61 3c3c f4a5 cbbd c52a 91bd
00000230: 3cb5 673c f045 2d3d e98a c7bd 32bf aebd
00000240: c33b b6bd 3a1c 1ebe 4e92 c83d 9b97 1bbe
00000250: 520b 67bd f3cb 44be 57db 3e3d 4274 973d
00000260: f9af 55bd aff1 d6bc 1a61 f3bc 295c d63c
00000270: 1b94 903d b27b c43d 6851 3cbe 2a4d c33d
00000280: 294d d3bd df44 98bd 43ae 3bbc 5543 a1bc
00000290: 8554 e8bd 2cd0 07bd faa6 4d3d 2586 e8bd
000002a0: 4a52 de3c 14a8 93bd a195 0cbe ea11 5d3d
000002b0: 13ec 0cbe 6e05 3bbd f88a d6bd 1186 91bd
000002c0: 6985 9c3c e0dc cdbd 276d 11bd dc1f 6bbe
000002d0: 4215 dbba 6d12 43be 7e8d 7fbd c441 abbc
000002e0: 6b12 193d 1dcf 533d 75ad b9bd 6e7d 1e3d
000002f0: 5881 c43c 3025 af3d ccc9 aebd e200 1abe
00000300: 6825 0dbd 48e0 68bc 0349 2d3c 42f6 4bbc
00000310: f38a a1bd 8071 a5bd 23a7 cabd f52e f03d
00000320: e782 4d3c 9463 8dbd ee3d 703d b991 113d
00000330: 4495 f33c 235f 543d bc57 c63c fff5 033e
00000340: 585f e03d 37a0 ac3d 6390 b6bd 424c b4bc
00000350: 60fa d43d 1ca0 323e b0ed 82bd 1776 90bd
00000360: 4b59 87bd 938f d73d df3d 82bc fd18 2e3e
00000370: eef8 003d 0d6f 8f3d 6c14 a63d 8b39 1bbd
00000380: 4434 d83d 0b8e bf3c 40fe d6bc 679c 7dbd
00000390: 02e8 48bc 91fa 143e 8b1a 3aba 2c91 a7bd
000003a0: 058d ea3d 0879 be3d 9587 0fbd 5fff e4bc
000003b0: b0af fbbd 23d1 e4ba 8582 c1bd 6f24 de3c
000003c0: 9949 d63d 5221 ae3d 7d35 463c 9cc3 7abd
000003d0: e8de babd f2e7 ba3c f055 4a3d 10b9 9ebd
000003e0: 7daa 96bd 3854 813d 5bec fc3c a8f5 423d
000003f0: 8d16 07bd a7d4 bdbd a542 c5bd 93d7 a63d

model_2/encoder_2/attention_pool_reduce_4/padded_masked_var_len_conv_9/Conv2D f4 [64, 1, 2, 64]
0.07212457 -0.024563244 0.013164108 -0.005297088 0.055360857 0.02010282 0.044693332 -0.06242501
0.089535154 -0.015486397 -0.058129802 0.072096996 0.049999595 -0.021061499 0.009552747 0.010386804
0.09323542 -0.03511761 0.06307675 -0.0024720514 -0.008275695 -0.035385575 0.050560024 -0.054362867
-0.019569805 -0.04211555 0.08001151 -0.060176983 -0.009254566 0.06481868 -0.0009870324 0.08636496
-0.07190351 0.08508839 0.0029601154 0.055759307 0.06357285 0.0024943124 0.0006905335 0.026166385
0.040898666 0.016892442 -0.08309339 0.0032799765 0.04428424 0.043600146 -0.046496153 0.058074567
-0.021750929 0.0013185237 0.0019032643 -0.038457 0.020826165 0.00710436 0.03189603 0.049219828
-0.026708344 0.045981012 -0.024293834 -0.021826021 -0.02174957 0.039891697 0.0059091845 -0.0031040532
0.046393637 -0.050856266 -0.07748166 0.08043656 -0.014466756 0.076790296 0.04958184 0.08336994
0.069254965 -0.09098826 -0.087946296 0.040902853 0.025903175 -0.10891978 -0.0162498 0.05463676
0.03021536 0.038739335 -0.0417349 -0.0477972 0.032586344 0.058705624 -0.006257305 0.08337144
0.07847507 0.03762777 0.010851833 -0.00026704356 0.06969045 -0.015071658 0.101090245 0.005056436
-0.01441717 -0.051966593 -0.041017108 0.04328332 0.00392154 0.11296048 0.02940412 -0.017477058
-0.01946467 0.040669292 0.09021917 0.1336771 0.036048155 0.042596597 0.09966014 0.046171766
0.044610996 -0.0043685874 0.025808498 0.088882476 0.053116042 0.09250944 0.0018991596 0.054736383
0.037002414 0.066845365 -0.022103684 -0.022440549 -0.04452544 0.045045998 -0.08074584 -0.029066505
-0.049112704 0.011608606 -0.034186985 -0.036685962 0.021067938 0.03014392 -0.052116487 -0.08676849
-0.032489415 -0.059390254 0.048399124 0.06762012 0.09249907 0.12124253 0.06461657 0.015465074
0.08032663 -0.04669386 0.0729433 -0.09121098 0.06939369 -0.002873888 -0.022262301 0.018442957
0.078772105 0.11092747 -0.048342213 -0.018063227 -0.021381518 0.059994195 0.024042603 0.055557273
0.06609915 -0.05509238 -0.005752567 0.06338607 -0.004198305 -0.08416924 0.018514115 -0.003958452
0.044225562 0.048776317 0.006923346 -0.022928776 0.056123503 0.051336914 0.04594478 0.027533332
-0.0383838 -0.09770719 0.024573494 0.021135245 0.034426987 0.06688611 0.014470002 0.086186014
0.031039065 0.016651323 -0.006021906 0.08371143 0.024167111 0.036659166 0.022174222 0.06767723
-0.034137536 -0.058207855 -0.050044652 0.024640372 0.021790136 -0.042719815 -0.001998742 0.027615452
0.09085739 -0.035428632 -0.029285438 0.0012794103 -0.005225217 0.032636028 0.016817868 0.03193646
0.07580839 0.010456902 0.058702257 0.040685203 -0.030130198 0.040066108 -0.010622845 0.060435392
-0.026069785 -0.041465137 -0.0031415513 0.0101668965 0.009294616 0.032374077 -0.02459899 -0.011738668
0.06661846 0.0592211 0.054720003 0.004882411 0.062211256 0.030630812 -0.009305958 0.0020501711
-0.020472018 0.06620007 0.03779782 0.032777272 -0.0025460992 0.039653786 -0.007806709 0.027461423
0.021988502 -0.052418653 0.040577523 -0.041775603 0.06506203 0.025638767 0.06791082 0.0032152075
-0.04078521 -0.030279487 -0.028796233 0.00456237 -0.015563495 -0.04017123 -0.019787759 0.038071368
00000000: 0cb6 933d db38 c9bc 45ae 573c 3293 adbb
00000010: 11c2 623d abae a43c 5b10 373d 5eb1 7fbd
00000020: 355e b73d a8ba 7dbc 8419 6ebd 97a7 933d
00000030: 60cc 4c3d 2a89 acbc 2083 1c3c 6a2d 2a3c
00000040: 36f2 be3d 7cd7 0fbd 622e 813d 2402 22bb
00000050: c896 07bc 77f0 10bd 0718 4f3d 99ab 5ebd
00000060: db50 a0bc 5b81 2cbd 13dd a33d 247c 76bd
00000070: 77a0 17bc a8bf 843d 505f 81ba 1de0 b03d
00000080: 2642 93bd d242 ae3d 7ffe 413b df63 643d
00000090: 7b32 823d 9e77 233b eb04 353a e35a d63c
000000a0: 5c85 273d 0562 8a3c de2c aabd e0f4 563b
000000b0: 6463 353d 1196 323d c072 3ebd 99df 6d3d
000000c0: 012f b2bc 50d2 ac3a f476 f93a 1685 1dbd
000000d0: a29b aa3c b1cb e83b 69a5 023d bb9a 493d
000000e0: 75cb dabc 9656 3c3d dd03 c7bc 7ccc b2bc
000000f0: 272c b2bc 7a65 233d d5a1 c13b 5f6d 4bbb
00000100: 4107 3e3d a94e 50bd b4ae 9ebd ecbb a43d
00000110: f905 6dbc 3b44 9d3d 5416 4b3d dcbd aa3d
00000120: 8cd5 8d3d 0e58 babd 301d b4bd c089 273d
00000130: e532 d43c 5511 dfbd 4d1e 85bc ccca 5f3d
00000140: 3486 f73c 23ad 1e3d 37f2 2abd ffc6 43bd
00000150: 4279 053d 4f75 703d 140a cdbb a5be aa3d
00000160: 8ab7 a03d 941f 1a3d e3cb 313c fb01 8cb9
00000170: deb9 8e3d 1eef 76bc 6708 cf3d 76b0 a53b
00000180: fe35 6cbc ecda 54bd 8e01 28bd da49 313d
00000190: 4380 803b d357 e73d e9e0 f03c 0c2c 8fbc
000001a0: 5f74 9fbc d894 263d d4c4 b83d a6e2 083e
000001b0: 3ba7 133d c579 2e3d 9e1a cc3d 9b1e 3d3d
000001c0: 05ba 363d 5e26 8fbb 586c d33c 0408 b63d
000001d0: 3590 593d 9775 bd3d 39ed f83a 4233 603d
000001e0: d88f 173d 39e6 883d c912 b5bc 3ed5 b7bc
000001f0: 4f60 36bd 2782 383d 135e a5bd e11c eebc
00000200: 672a 49bd 0632 3e3c a707 0cbd 0544 16bd
00000210: ab96 ac3c 62f0 f63c 1978 55bd aeb3 b1bd
00000220: 9f13 05bd 3243 73bd 293e 463d 6b7c 8a3d
00000230: 2770 bd3d 014e f83d b155 843d 3961 7d3c
00000240: 4a82 a43d 1042 3fbd 4c63 953d d3cc babd
00000250: 471e 8e3d d757 3cbb 6e5f b6bc af15 973c
00000260: 4553 a13d f12d e33d 7c02 46bd 55f9 93bc
00000270: 4b28 afbc 79bc 753d fef4 c43c 0690 633d
00000280: fe5e 873d 8ca8 61bd 0880 bcbb 8ed0 813d
00000290: ef91 89bb ec60 acbd eaaa 973c e7b5 81bb
000002a0: dd25 353d adc9 473d 3cdd e23b 21d5 bbbc
000002b0: c2e1 653d a846 523d 9830 3c3d 958d e13c
000002c0: 5538 1dbd b51a c8bd 5a4e c93c d223 ad3c
000002d0: 5003 0d3d 96fb 883d 9613 6d3c 4b82 b03d
000002e0: a345 fe3c 5b68 883c 6953 c5bb e670 ab3d
000002f0: 1bfa c53c ec27 163d b7a6 b53c 5c9a 8a3d
00000300: cdd3 0bbd 5c6b 6ebd 9ffb 4cbd 9bda c93c
00000310: 3a81 b23c f9fa 2ebd 54fd 02bb cd39 e23c
00000320: 7013 ba3d 9d1d 11bd 04e8 efbc e3b1 a73a
00000330: 4c38 abbb 5bad 053d a0c5 893c cecf 023d
00000340: 6e41 9b3d 6d53 2b3c c771 703d 87a5 263d
00000350: 9bd3 f6bc 5c1c 243d 710b 2ebc 1a8b 773d
00000360: 4d90 d5bc 59d7 29bd 7ce2 4dbb 0e93 263c
00000370: 7248 183c ae9a 043d d283 c9bc 8b53 40bc
00000380: 426f 883d d391 723d 1522 603d a2fc 9f3b
00000390: 3bd1 7e3d 78ed fa3c 0478 18bc 2a5c 063b
000003a0: efb4 a7bc e793 873d e3d1 1a3d 7641 063d
000003b0: 75dc 26bb 026c 223d 6ccf ffbb c7f6 e03c
000003c0: 3b21 b43c f1b4 56bd 9e34 263d e51c 2bbd
000003d0: 3e3f 853d 6408 d23c d414 8b3d 3bb6 523b
000003e0: 640e 27bd b00c f8bc 14e6 ebbc ef7f 953b
000003f0: 08fe 7ebc 968a 24bd f019 a2bc b9f0 1b3d

model_2/encoder_2/attention_pool_reduce_5/padded_masked_var_len_conv_11/Conv2D f4 [64, 1, 3, 64]
0.0432441 -0.0181001 0.022509245 -0.025451595 0.0017918035 0.021812677 0.05547476 0.018750146
0.05170269 0.05417515 -0.037146226 0.070064045 0.02174404 -0.018979883 0.05870271 -0.01678165
-0.04204381 -0.009415937 -0.021385575 0.010059744 0.041427754 0.00065023435 -0.0052813753 -0.004096203
0.022013694 -0.03307804 -0.034835994 0.020139743 0.014391518 0.0047338307 0.027503036 0.019387806
-0.044388626 0.027346266 0.04797944 0.011875627 0.010058151 0.0054192212 0.02057991 0.013181213
0.038230862 -0.027186094 -0.010452936 0.05898862 -0.025589215 -0.006783971 0.000310312 0.024991771
0.0046566613 0.018180624 0.00080981717 0.04812186 0.0004712464 -0.023770235 -0.041908495 0.04550861
0.03539368 0.02039798 0.06931143 -0.009827902 0.0010867042 0.023829969 -0.0030602918 -0.006238708
-3.1508054e-05 0.024742914 0.024230184 -0.0132442815 -0.02785662 0.0072384467 0.06058861 0.054904632
0.07102214 -0.02587635 -0.008186065 0.06836329 0.07114588 0.040076286 0.06915919 0.023092017
0.028273653 0.031645913 0.046807744 0.014716391 -0.021476848 -0.0035866427 -0.024112092 0.047895394
0.067598104 0.017909843 0.059316084 0.03308262 0.034932557 -0.038456216 0.008521532 -0.024754269
-0.023795765 0.048681576 0.010531303 -0.007484361 0.0013997088 0.058683854 0.0058018262 0.023485225
0.06756636 0.0372217 -0.008428425 -0.042263683 0.038885556 -0.015872529 -0.044349477 0.0737345
0.0017847206 -0.025862917 0.008041467 0.031238928 0.089574836 -0.042135455 0.068990454 0.017862916
-0.027413344 0.025717212 -0.024086827 0.014773991 0.04827958 -0.081988156 0.0394196 -0.004305646
-0.021974778 0.003465666 0.042924587 0.0052655204 0.056594674 -0.012096577 0.048990015 0.03834453
0.012946548 0.03441387 0.029616801 -0.010751885 0.039548848 -0.00223974 0.048049267 -0.017838674
0.026849067 -0.042213026 -0.009407453 0.011757476 -0.02665064 0.015924461 0.027971804 -0.010054818
-0.012513771 0.034778677 -0.018958576 -0.023258487 -0.055148378 0.01639639 0.031033557 -0.03197352
-0.011200147 -0.01926106 0.046765096 0.020707455 0.0018333773 -0.0040312414 0.0038280936 -0.0427878
-0.02556455 -0.023765542 0.027186677 0.018888408 0.035886552 0.050821215 -0.057027828 0.042067252
-0.018169116 -0.0619106 -0.0121880835 -0.010140255 0.008687845 0.032984637 0.027241057 -0.029688733
-0.038249876 -0.0016192676 0.016539548 0.030042613 0.028693127 0.048858784 0.013630167 -0.036764625
-0.05771424 0.042815022 0.0025083297 -0.006431995 0.021089507 0.015742088 -0.031469785 0.002380688
0.032606307 0.016252713 0.019757118 0.0020349876 -0.022622293 -0.017535068 -0.012946406 0.018482998
-0.0074179596 -0.027123071 0.0052001406 -0.035697076 0.04579555 0.053824108 0.011344773 -0.012145668
0.055359706 0.025843624 -0.004773199 -0.0013994658 0.00834443 0.04265721 -0.0012115387 -0.040000506
0.0077861836 0.00203256 -0.058060806 0.034374144 0.07067796 0.015880732 0.0558314 -0.048549954
-0.03370603 0.053712923 0.038038354 0.01849256 -0.020328166 -0.00061763154 0.023014419 0.0050925906
0.0139518725 0.048095807 0.019592622 -0.0042733657 0.034968603 -0.011312197 0.02755134 0.00713046
-0.028230885 0.017230533 -0.031040806 0.023749204 0.017290564 -0.0013288604 0.036148407 0.024251807
00000000: ba20 313d a946 94bc 4f65 b83c dd7f d0bc
00000010: f3da ea3a 80b0 b23c 8039 633d e899 993c
00000020: 33c6 533d c3e6 5d3d a426 18bd bd7d 8f3d
00000030: 8f20 b23c b37b 9bbc 4172 703d ac79 89bc
00000040: 2136 2cbd 4d45 1abc cd30 afbc a0d1 243c
00000050: 26b0 293d 7d74 2a3a 630f adbb 7139 86bb
00000060: 1056 b43c d77c 07bd 30b0 0ebd 1afc a43c
00000070: 67ca 6b3c 401e 9b3b 0c4e e13c 2dd3 9e3c
00000080: d9d0 35bd 4705 e03c 1786 443d fd91 423c
00000090: f1ca 243c b993 b13b 3397 a83c 04f6 573c
000000a0: f797 1c3d 5fb5 debc cb42 2bbc 0d9e 713d
000000b0: 79a0 d1bc 134c debb 5fb1 a239 8bbb cc3c
000000c0: e896 983b 88ef 943c e949 543a 6d1b 453d
000000d0: 9f11 f739 ccb9 c2bc 3ea8 2bbd 3c67 3a3d
000000e0: f7f8 103d aa19 a73c 27f3 8d3d 3505 21bc
000000f0: be6f 8e3a 1137 c33c 2d8f 48bb 136e ccbb
00000100: 8427 04b8 a7b1 ca3c 617e c63c 8bfe 58bc
00000110: 9133 e4bc 7e30 ed3b c32b 783d aee3 603d
00000120: 0e74 913d a4fa d3bc d81e 06bc 0d02 8c3d
00000130: eeb4 913d 0827 243d 55a3 8d3d 782b bd3c
00000140: 269e e73c 259f 013d 7ab9 3f3d 051d 713c
00000150: 37f0 afbc e10d 6bbb b986 c5bc f62d 443d
00000160: e070 8a3d aab7 923c 6cf5 723d a481 073d
00000170: 7115 0f3d 4484 1dbd e59d 0b3c 77c9 cabc
00000180: 56ef c2bc 5566 473d 7c8b 2c3c 5f3f f5bb
00000190: 6f76 b73a 7b5e 703d 3f1d be3b 1664 c03c
000001a0: 3b60 8a3d c875 183d 6017 0abc af1c 2dbd
000001b0: 7646 1f3d 1b07 82bc cca7 35bd 1d02 973d
000001c0: 49ed e93a 78de d3bc 5bc0 033c c8e8 ff3c
000001d0: 0373 b73d 3a96 2cbd de4a 8d3d 4055 923c
000001e0: f391 e0bc e7ac d23c bd51 c5bc 9c0e 723c
000001f0: cfc0 453d 68e9 a7bd 7276 213d 6016 8dbb
00000200: 7304 b4bc 3a20 633b b1d1 2f3d 638a ac3b
00000210: d1cf 673d b930 46bc c1a9 483d 270f 1d3d
00000220: c21d 543c 8ff5 0c3d ef9e f23c ad28 30bc
00000230: f9fd 213d 9ac8 12bb 4fcf 443d 6922 92bc
00000240: 93f2 db3c 91e7 2cbd b821 1abc 6ea2 403c
00000250: 7152 dabc 0474 823c 2025 e53c f7bc 24bc
00000260: 8f06 4dbc 1674 0e3d 044f 9bbc 9588 bebc
00000270: 44e3 61bd b951 863c 163a fe3c aaf6 02bd
00000280: d280 37bc 5fc9 9dbc c28c 3f3d aea2 a93c
00000290: ef4d f03a 8118 84bb c1e0 7a3b 4342 2fbd
000002a0: bf6c d1bc f4af c2bc 98b6 de3c ddbb 9a3c
000002b0: c7fd 123d e829 503d 0396 69bd b64e 2c3d
000002c0: 66d7 94bc f895 7dbd 87b0 47bc 5023 26bc
000002d0: 7757 0e3c e61a 073d a328 df3c c935 f3bc
000002e0: e7ab 1cbd 9b3d d4ba f27d 873c ed1b f63c
000002f0: d90d eb3c 2620 483d 1051 5f3c 8196 16bd
00000300: c465 6cbd ce5e 2f3d ca62 243b 7cc3 d2bb
00000310: e7c3 ac3c 8df5 803c 76e6 00bd 5105 1c3b
00000320: 318e 053d 6924 853c aed9 a13c 6d5d 053b
00000330: 6352 b9bc b4a5 8fbc 2a1d 54bc a869 973c
00000340: 5b12 f3bb 3431 debc f165 aa3b 1937 12bd
00000350: 1d94 3b3d ab76 5c3d 6ddf 393c a0fe 46bc
00000360: dcc0 623d 02b6 d33c 7f68 9cbb 486e b7ba
00000370: 13b7 083c 54b9 2e3d 7ecc 9eba 92d7 23bd
00000380: 3e23 ff3b b334 053b 2bd1 6dbd e7cb 0c3d
00000390: 9bbf 903d 4f18 823c 77af 643d 51dc 46bd
000003a0: 560f 0abd 1502 5c3d 1bce 1b3d b67d 973c
000003b0: 4187 a6bc 8de8 21ba bc88 bc3c bfdf a63b
000003c0: 6596 643c 1c00 453d b580 a03c 9707 8cbb
000003d0: 3d3b 0f3d cb56 39bc 59b3 e13c a2a6 e93b
000003e0: 7544 e7bc 0c27 8d3c 4a49 febc b18d c23c
000003f0: f1a4 8d3c 282d aeba 5a10 143d baab c63c

model_2/encoder_2/base_q_dense_var_len_4/var_len_batch_normalization_12/batchnorm/mul_1 f4 [64, 512]
0.026927566 0.039124347 0.082173616 0.005833956 -0.0664093 -0.093886726 0.026803998 -0.065463476
-0.027576596 0.044354063 -0.0034128423 0.017382149 -0.033727188 -0.01591122 0.02023896 -0.07411
-0.096111655 0.031223461 0.054843307 0.04111243 -0.029248076 -0.07828139 0.0820134 -0.0011708462
-0.03386471 0.056545254 0.07981316 -0.07448322 -0.088087246 -0.040544633 0.035855684 0.04211207
-0.03026212 0.0024606527 0.016875915 -0.079284385 0.05398004 0.035408 -0.022740783 -0.075193755
0.017687872 0.0043494664 -0.029486919 -0.008743151 0.07016283 -0.073013626 -0.026297601 0.026041675
0.020868199 0.0029680454 -0.051987894 0.030489314 0.041728616 0.07015709 -0.04142943 -0.021917805
-0.02988395 0.050260246 -0.046328682 0.023227405 0.0056944503 0.058487732 0.018225254 0.064311214
-0.025993658 0.044839084 0.056110505 -0.040754233 -0.008645074 0.012860042 0.015936859 0.03128976
-0.0296131 0.002232397 0.021967975 0.020993255 -0.059203558 -0.029021196 0.017609155 -0.058769956
0.057184044 -0.054547872 -0.01351571 -0.025744027 -0.028901143 -0.015696198 0.08589877 0.021314982
0.0373956 0.030070022 -0.07149317 -0.081169166 0.07635747 -0.010403107 -0.005353329 -0.07024664
0.0018880635 -0.035388388 0.056195565 0.010296521 -0.014634313 0.022829417 -0.025133627 0.0023536044
-0.035940584 -0.070261076 0.05898764 0.03741174 0.015871072 -0.004095088 0.0253229 -0.06949141
0.071321525 -0.06848529 -0.048310913 0.07206665 0.023755249 0.023230568 0.009022063 -0.0480126
0.016588764 0.013566986 0.069745705 0.03830984 0.041028745 -0.05386312 0.07120063 0.0023862722
-0.013782927 0.08953324 0.007733395 0.013657412 -0.0032430587 0.05244722 -0.06777014 -0.0056402087
0.014357845 -0.040152747 0.01564164 -0.0074966834 0.074391276 -0.07902267 0.007279533 -0.036688916
0.0006410533 -0.042444047 0.027415788 -0.043280017 -0.020005519 -0.013209206 0.09081668 0.07843289
0.018247234 0.03645877 0.03208007 -0.02012467 -0.053269096 -0.0069602174 -0.024120735 0.02501155
0.012918269 0.05865079 -0.014770823 -0.0060795113 -0.018995797 -0.026072338 -0.0682209 -0.03579366
0.013769937 0.014897041 0.0837934 0.052340116 0.0378198 -0.011477574 -0.015418919 -0.0228098
-0.047720473 0.069497414 0.07836397 0.003212385 -0.037989445 0.040794086 -0.0107886875 0.08465825
-0.0107017895 0.01887315 0.03894116 -0.009295231 -0.023943186 -0.073262624 -0.07170605 0.03491414
-0.086925104 0.015451693 0.04229783 0.07696303 0.097123004 0.06537307 0.07837268 0.04426294
-0.01750373 -0.03390339 0.021273512 0.0917303 0.051426075 -0.061370462 0.07244469 -0.011170865
-0.031917036 -0.019327477 0.06121544 0.014170426 0.062289 0.07373003 0.062263314 -0.02086515
-0.002977565 -0.02761552 0.017437708 0.049412623 -0.055463016 0.083923586 -0.020117022 0.023033377
-0.040173806 0.011231333 -0.067739785 0.027967658 -0.06927425 0.00020745081 -0.014222284 0.00056941994
-0.054381624 0.024059298 0.024040362 -0.045655068 -0.092353664 0.049840707 -0.0067270114 -0.051374987
0.028157244 -0.00457364 0.048703995 -0.0033460662 -0.016479023 -0.035362985 0.006380087 -0.021709194
0.061231446 -0.02137288 0.034593295 -0.021754133 0.02541992 -0.052670218 0.048557963 0.034055002
00000000: 3397 dc3c da40 203d a44a a83d c52a bf3b
00000010: 9901 88bd af47 c0bd 0f94 db3c b711 86bd
00000020: 50e8 e1bc 9bac 353d fea9 5fbb 0265 8e3c
00000030: 8525 0abd 3f58 82bc 2dcc a53c fcc6 97bd
00000040: 30d6 c4bd 58c8 ff3c 60a3 603d 8265 283d
00000050: a999 efbc fe51 a0bd a4f6 a73d 1477 99ba
00000060: b9b5 0abd ff9b 673d 1575 a33d a98a 98bd
00000070: 1667 b4bd 2112 26bd 69dd 123d b57d 2c3d
00000080: 44e8 f7bc e742 213b 5c3f 8a3c da5f a2bd
00000090: 2d1a 5d3d fb07 113d e14a babc 2fff 99bd
000000a0: 28e6 903c f885 8e3b 8d8e f1bc 6f3f 0fbc
000000b0: 88b1 8f3d 2b88 95bd 116e d7bc 5a55 d53c
000000c0: c9f3 aa3c 8a83 423b 42f1 54bd bac4 f93c
000000d0: a0eb 2a3d 85ae 8f3d e8b1 29bd f88c b3bc
000000e0: 2fcf f4bc b0dd 4d3d 25c3 3dbd 6647 be3c
000000f0: 8398 ba3b d590 6f3d 214d 953c 99b5 833d
00000100: a7f0 d4bc 30a9 373d 21d4 653d e9ed 26bd
00000110: 12a4 0dbc edb2 523c 048e 823c b129 003d
00000120: 2c97 f2bc 684d 123b 2ff6 b33c 0cfa ab3c
00000130: 6e7f 72bd dcbd edbc 1341 903c c4b8 70bd
00000140: d139 6a3d 976d 5fbd ff70 5dbc 23e5 d2bc
00000150: 17c2 ecbc 5095 80bc b2eb af3d c29c ae3c
00000160: 212c 193d 6855 f63c 036b 92bd 053c a6bd
00000170: 4e61 9c3d cb71 2abc fa6a afbb 78dd 8fbd
00000180: e678 f73a 6af3 10bd 522d 663d bdb2 283c
00000190: c2c4 6fbc c204 bb3c 09e5 cdbc ee3e 1a3b
000001a0: 6f36 13bd 0ae5 8fbd 069d 713d 0d3d 193d
000001b0: 0d04 823c 1730 86bb f871 cf3c 8351 8ebd
000001c0: 0511 923d 0442 8cbd aae1 45bd ae97 933d
000001d0: 5e9a c23c 084e be3c 46d1 133c dca8 44bd
000001e0: 29e5 873c 1048 5e3c d6d6 8e3d c7ea 1c3d
000001f0: c20d 283d 939f 5cbd a3d1 913d 0163 1c3b
00000200: c9d1 61bc 345d b73d 6b68 fd3b 56c3 5f3c
00000210: 7f89 54bb e5d2 563d 12cb 8abd 80d1 b8bb
00000220: 2b3d 6b3c 3577 24bd e622 803c bda6 f5bb
00000230: 745a 983d a3d6 a1bd 2689 ee3b 1e47 16bd
00000240: 5c0c 283a cfd9 2dbd 1397 e03c 6346 31bd
00000250: 9de2 a3bc 6d6b 58bc 18fe b93d 6ca1 a03d
00000260: 397b 953c cb55 153d 6466 033d 7edc a4bc
00000270: b230 5abd 8912 e4bb d998 c5bc 06e5 cc3c
00000280: 26a7 533c d03b 703d 5201 72bc a336 c7bb
00000290: 139d 9bbc a895 d5bc 66b7 8bbd 5f9c 12bd
000002a0: 4d9b 613c b812 743c e09b ab3d 9762 563d
000002b0: efe8 1a3d 6f0c 3cbc a29f 7cbc 9edb babc
000002c0: 8b76 43bd a954 8e3d 4a7d a03d e186 523b
000002d0: d29a 1bbd b317 273d 09c3 30bc 4e61 ad3d
000002e0: 8f56 2fbc dd9b 9a3c c480 1f3d 064b 18bc
000002f0: 8024 c4bc b70a 96bd 9fda 92bd 2102 0f3d
00000300: ca05 b2bd 1929 7d3c 7d40 2d3d cb9e 9d3d
00000310: 6de8 c63d 51e2 853d db81 a03d 0e4d 353d
00000320: fb63 8fbc 48de 0abd ca45 ae3c 18dd bb3d
00000330: 26a4 523d 985f 7bbd e25d 943d 0106 37bc
00000340: 70bb 02bd a854 9ebc 0bbd 7a3d 132b 683c
00000350: c022 7f3d c5ff 963d d107 7f3d 64ed aabc
00000360: 4023 43bb f139 e2bc 86d9 8e3c e464 4a3d
00000370: 302d 63bd 21e0 ab3d 74cc a4bc 7eb0 bc3c
00000380: 4a8d 24bd a003 383c 28bb 8abd 6e1c e53c
00000390: a8df 8dbd 2787 5939 9504 69bc 2045 153a
000003a0: 44bf 5ebd 0118 c53c 4bf0 c43c cf00 3bbd
000003b0: eb23 bdbd c525 4c3d 436e dcbb 946e 52bd
000003c0: 05aa e63c 79de 95bb d77d 473d ad49 5bbb
000003d0: 04ff 86bc c7d8 10bd 0d10 d13b 7bd7 b1bc
000003e0: d3cd 7a3d 2e16 afbc b3b1 0d3d b935 b2bc
000003f0: 703d d03c babc 57bd b7e4 463d 427d 0b3d

model_2/encoder_2/base_q_dense_var_len_5/var_len_batch_normalization_13/batchnorm/mul_1 f4 [64, 512]
0.08629171 -0.06771212 -0.1648047 -0.046212178 0.060445532 -0.12084075 0.01168725 -0.042046595
0.028310107 0.004195476 -0.055434406 0.07798652 -0.02251593 -0.022560585 0.08100999 -0.093919456
-0.10016529 0.12312484 0.046373095 0.055956308 0.09513154 0.027955117 0.04928807 -0.064160734
-0.009260889 -0.09476934 0.01796293 -0.045789134 -0.07177957 -0.04877272 -0.048896298 -0.092694625
-0.071934514 -0.060364883 -0.1215392 0.13498893 -0.085240975 -0.021717452 0.05952347 0.12934679
0.10303838 0.042410214 0.023366164 -0.030540079 -0.16993123 -0.048251636 0.00542504 0.0015336337
-0.0542055 -0.12849249 -0.07622525 -0.14226653 0.043254927 -0.009489106 0.0036558402 0.109399326
0.03477073 0.037725803 -0.0926739 0.034569725 0.06312131 0.031182589 0.06676872 -0.060489044
-0.116566785 0.015856665 0.025053088 0.08713181 -0.12640867 -0.057307262 0.059909377 0.028960302
-0.097446956 0.007968965 -0.016801223 0.039295703 0.010117019 0.05191221 0.001261427 -0.037713524
-0.05866912 0.0013770582 0.011422588 -0.028983302 0.19293496 -0.047401197 -0.14669298 -0.11887595
0.06721074 0.07275142 -0.06631945 0.08269097 0.04461252 0.02441108 -0.06764155 0.08327771
0.0959662 -0.08061061 0.10499598 0.05314127 0.0855718 0.04335158 0.10063507 -0.030694805
0.11490551 0.16088067 -0.112835504 0.05308756 -0.06115193 -0.06389988 -0.08916516 0.055491205
-0.036022022 -0.020187423 0.06367782 0.07730066 -0.07866404 -0.077295825 -0.024050605 -0.05666078
-0.11098527 0.10569247 -0.046098504 -0.06149136 0.047700785 -0.08545417 0.008271687 0.036401916
-0.05584709 0.051658046 0.05452959 0.08552811 0.08043002 -0.053269137 0.09852759 -0.014983102
0.043732326 -0.048991576 0.017369915 -0.03209812 -0.17914452 0.010926344 -0.011855646 0.015856685
-0.081018046 -0.022687072 0.039448 -0.030795768 0.0017830067 -0.040165327 -0.05682125 -0.01743671
0.012170494 0.04633427 -0.0074005662 0.011197399 -0.006040992 -0.0065860767 0.011505941 0.034049347
-0.069573574 0.040403217 -0.079775505 -0.0028188757 0.062895775 0.051236086 0.010989505 0.029461317
-0.058184225 -0.107252195 0.034203585 0.07163107 0.034197554 0.039008394 -0.08747331 0.0028473763
0.074579805 0.012805695 0.04112043 0.008116911 0.020637695 0.0979745 0.099255174 0.105858944
-0.063475735 -0.06273842 0.032998633 0.03930102 -0.11218597 -0.12099322 -0.07104232 0.102009445
-0.055945124 0.106159545 0.06494083 -0.104843244 -0.05412947 -0.11216244 -0.04998553 -0.09266084
-0.08976496 -0.0549212 -0.03342623 0.06905751 -0.08036126 -0.09467786 0.027313843 0.07138967
-0.09927784 -0.15655299 0.042853717 0.034337066 0.1303881 0.11052182 -0.0056337425 -0.075617775
-0.020012686 -0.06346081 0.05710093 -0.020287162 -0.030535677 -0.13893147 -0.07257446 -0.044479694
-0.071185894 0.030691372 0.080079496 0.055259492 0.099942796 -0.05509611 -0.0040847487 -0.09011961
0.120078295 -0.07987927 -0.00911306 -0.028578741 -0.02532094 -0.118007116 -0.04866753 -0.14158188
-0.08407328 0.006761369 0.105173685 0.117120154 -0.088448085 0.023356047 -0.10325804 -0.0012631302
-0.12561241 -0.13905343 -0.04669015 -0.0052033225 -0.01709104 -0.009644483 -0.16912265 0.013020226
00000000: b5b9 b03d a7ac 8abd 90c2 28be fb48 3dbd
00000010: bc95 773d 5b7b f7bd e17b 3f3c 0d39 2cbd
00000020: 99ea e73c 347a 893b 300f 63bd 66b7 9f3d
00000030: 5473 b8bc fad0 b8bc 91e8 a53d d858 c0bd
00000040: 7623 cdbd e028 fc3d b7f1 3d3d 7132 653d
00000050: 53d4 c23d 2102 e53c 4ae2 493d b466 83bd
00000060: fcba 17bc 6d16 c2bd ff26 933c 638d 3bbd
00000070: 2b01 93bd e7c5 47bd 7c47 48bd aed6 bdbd
00000080: 6752 93bd 2b41 77bd 8be9 f8bd 8a3a 0a3e
00000090: d292 aebd cce8 b1bc e2ce 733d 7c73 043e
000000a0: c905 d33d 55b6 2d3d 666a bf3c 302f fabc
000000b0: 7402 2ebe 82a3 45bd 89c4 b13b 3504 c93a
000000c0: 9606 5ebd 8993 03be fc1b 9cbd 51ae 11be
000000d0: 142c 313d 3278 1bbc d296 6f3b c10c e03d
000000e0: c16b 0e3d 5f86 1a3d d0cb bdbd fc98 0d3d
000000f0: bf45 813d a172 ff3c 0abe 883d 5cc3 77bd
00000100: 91ba eebd d6e5 813c 223c cd3c 2a72 b23d
00000110: 4671 01be 05bb 6abd 8963 753d 283e ed3c
00000120: 4592 c7bd 4390 023c b8a2 89bc 88f4 203d
00000130: dac1 253c e6a1 543d 7756 a53a 7f79 1abd
00000140: 084f 70bd 687e b43a ce25 3b3c 646e edbc
00000150: be90 453e c227 42bd af36 16be 3c75 f3bd
00000160: c9a5 893d b2fe 943d 7ed2 87bd e259 a93d
00000170: 9ebb 363d bff9 c73c a787 8abd 818d aa3d
00000180: ed89 c43d 2d17 a5bd 2208 d73d a9aa 593d
00000190: 4540 af3d 6d91 313d c219 ce3d ac73 fbbc
000001a0: 9453 eb3d e7bd 243e 4d16 e7bd 5772 593d
000001b0: 727a 7abd f1dd 82bd 399c b6bd bf4a 633d
000001c0: d48b 13bd 1860 a5bc 8469 823d cf4f 9e3d
000001d0: 9d1a a1bd 464d 9ebd c605 c5bc 2215 68bd
000001e0: 3f4c e3bd 4b75 d83d c9d1 3cbd 5dde 7bbd
000001f0: e661 433d 9902 afbd f885 073c 2d1a 153d
00000200: ebbf 64bd 6397 533d 6b5a 5f3d 5d29 af3d
00000210: 7fb8 a43d bd30 5abd d5c8 c93d af7b 75bc
00000220: ab20 333d 64ab 48bd 5a4b 8e3c 5179 03bd
00000230: a971 37be 6904 333c 2f3e 42bc e1e5 813c
00000240: caec a5bd 3dda b9bc 3a94 213d 6847 fcbc
00000250: c7b3 e93a 6684 24bd 66bd 68bd 6ed7 8ebc
00000260: c066 473c 01c9 3d3d 7380 f2bb 4c75 373c
00000270: 84f3 c5bb 04d0 d7bb 6a83 3c3c 5477 0b3d
00000280: 977c 8ebd d87d 253d 5761 a3bd e3bc 38bb
00000290: 80cf 803d eedc 513d 530d 343c dc58 f13c
000002a0: 9552 6ebd 0aa7 dbbd 0f19 0c3d 4fb3 923d
000002b0: bc12 0c3d 44c7 1f3d 3525 b3bd 0c9b 3a3b
000002c0: 4cbd 983d face 513c e56d 283d cbfc 043c
000002d0: 6210 a93c dba6 c83d 4c46 cb3d 93cc d83d
000002e0: 91ff 81bd 007d 80bd 9329 073d 1bfa 203d
000002f0: c2c1 e5bd 4bcb f7bd a37e 91bd 54ea d03d
00000300: b726 65bd 2d6a d93d b3ff 843d 0eb8 d6bd
00000310: ddb6 5dbd 6cb5 e5bd a1bd 4cbd f7c4 bdbd
00000320: b1d6 b7bd 0df5 60bd f1e9 08bd 066e 8d3d
00000330: 7294 a4bd 77e6 c1bd 48c1 df3c bf34 923d
00000340: 2e52 cbbd 6d4f 20be 6187 2f3d 06a5 0c3d
00000350: 7584 053e 4459 e23d 429b b8bb 7edd 9abd
00000360: a5f1 a3bc bef7 81bd aae2 693d 4331 a6bc
00000370: f525 fabc 0d44 0ebe eba1 94bd 5730 36bd
00000380: e9c9 91bd 796c fb3c b800 a43d c757 623d
00000390: cfae cc3d 75ac 61bd 5bd9 85bb a190 b8bd
000003a0: 9ceb f53d be97 a3bd f24e 15bc f71d eabc
000003b0: dc6d cfbc b7ad f1bd 9b57 47bd d7fa 10be
000003c0: 9d2e acbd 798e dd3b 4d65 d73d b1dc ef3d
000003d0: 4524 b5bd 2e55 bf3c f478 d3bd 9e8f a5ba
000003e0: 8aa0 00be 0664 0ebe 2c3e 3fbd a280 aabb
000003f0: 8202 8cbc e503 1ebc 7d2e 2dbe c952 553c
