assets/tensor_flow/text_emotion_model_2.tflite (tflite, 462860 bytes, 14 tensors)

model_2/encoder_2/attention_pool_reduce_4/padded_masked_var_len_conv_8/var_len_batch_normalization_14/batchnorm/add_1;model_2/encoder_2/attention_pool_reduce_4/padded_masked_var_len_conv_8/var_len_batch_normalization_14/batchnorm/mul_1;encoder_2/attention_pool_reduce_4/padded_masked_var_len_conv_8/bias;model_2/encoder_2/attention_pool_reduce_4/padded_masked_var_len_conv_8/BiasAdd;model_2/encoder_2/attention_pool_reduce_4/padded_masked_var_len_conv_8/var_len_batch_normalization_14/batchnorm/mul;model_2/encoder_2/attention_pool_reduce_4/padded_masked_var_len_conv_8/var_len_batch_normalization_14/batchnorm/sub f4 [64]
0.5497607 -0.31293446 0.14819261 0.4933801 0.320711 0.3683221 0.36817616 -0.45323926
-0.025119448 0.1912189 0.21405637 -0.4679206 -0.137708 0.6386039 0.5133486 -0.45715725
0.020693032 -0.5185074 0.21741 -0.23257662 0.41941467 0.380077 -0.66427743 0.40260667
-0.3387915 -0.6106419 0.15670812 -0.21635634 -0.24404356 -0.093828514 0.43565437 -0.06218508
-0.34096885 -0.54937935 0.31412968 0.46779302 0.6498723 -0.52042615 0.5304176 -0.21895263
0.3242975 -0.32389426 0.06972736 -0.26981142 0.5860412 -0.10423734 0.02095196 0.47822115
0.39382458 0.45618963 0.6110219 -0.052905943 -0.28001574 0.44310912 0.626203 0.39006442
0.3416068 -0.22626105 0.038825322 -0.23633225 -0.22115043 0.5830573 -0.14012542 -0.15002052
00000000: 1ebd 0c3f f238 a0be cebf 173e 519c fc3e
00000010: 3b34 a43e b794 bc3e 9681 bc3e fa0e e8be
00000020: 4dc7 cdbc e3ce 433e 9831 5b3e 4a93 efbe
00000030: 5303 0dbe 8c7b 233f d06a 033f 8410 eabe
00000040: 6f84 a93c e7bc 04bf baa0 5e3e 9128 6ebe
00000050: 85bd d63e 7499 c23e 160e 2abf 7622 ce3e
00000060: 1476 adbe 0753 1cbf 1878 203e 848c 5dbe
00000070: 8ee6 79be 2a29 c0bd 170e df3e c8b5 7ebd
00000080: 7893 aebe 20a4 0cbf 9bd5 a03e 9182 ef3e
00000090: 085e 263f a63a 05bf 73c9 073f 1e35 60be
000000a0: 520a a63e 78d5 a5be 38cd 8e3d b924 8abe
000000b0: cc06 163f 637a d5bd 72a3 ab3c 67d9 f43e
000000c0: 60a3 c93e b091 e93e ee6b 1c3f e7b3 58bd
000000d0: 395e 8fbe 33df e23e d74e 203f 86b6 c73e
000000e0: 16e7 ae3e fab0 67be 4d07 1f3d 1501 72be
000000f0: 4275 62be 3e43 153f 0a7d 0fbe fb9e 19be

model_2/encoder_2/attention_pool_reduce_5/padded_masked_var_len_conv_10/var_len_batch_normalization_16/batchnorm/add_1;model_2/encoder_2/attention_pool_reduce_5/padded_masked_var_len_conv_10/var_len_batch_normalization_16/batchnorm/mul_1;encoder_2/attention_pool_reduce_5/padded_masked_var_len_conv_10/bias;model_2/encoder_2/attention_pool_reduce_5/padded_masked_var_len_conv_10/BiasAdd;model_2/encoder_2/attention_pool_reduce_5/padded_masked_var_len_conv_10/var_len_batch_normalization_16/batchnorm/mul;model_2/encoder_2/attention_pool_reduce_5/padded_masked_var_len_conv_10/var_len_batch_normalization_16/batchnorm/sub f4 [64]
-0.48365164 -0.31480902 0.26038072 0.48862422 0.24233606 -0.008634526 -0.49094945 -0.5239691
-0.429693 -0.088638216 0.18784642 -0.41065323 -0.34797126 0.68807095 -0.4602895 -0.5552305
-0.43703458 -0.41790247 -0.3875711 0.28550208 -0.73173827 0.07109964 0.33370548 -0.34525356
0.5875881 -0.37551376 0.53617096 -0.5195919 -0.5005098 -0.49518543 0.6183968 -0.5480132
-0.49661177 -0.6521845 -0.16398878 0.39534095 0.1880424 0.31621242 -0.287555 0.2736703
-0.5096827 0.00042254478 -0.034225017 0.12624273 0.31302014 0.5250304 0.020039732 0.15218267
0.0317434 -0.002383301 -0.41249037 0.3370271 0.37812546 0.17955571 -0.019044705 0.53400916
-0.6069581 -0.5974509 -0.4132535 -0.69497913 0.55941254 0.08749519 0.10759322 -0.386868
00000000: 30a1 f7be a62e a1be 9f50 853e f42c fa3e
00000010: f226 783e d477 0dbc ba5d fbbe d722 06bf
00000020: b900 dcbe f487 b5bd d05a 403e 2441 d2be
00000030: 4a29 b2be 6b25 303f 11ab ebbe 9623 0ebf
00000040: ffc2 dfbe 50f7 d5be b86f c6be 542d 923e
00000050: 3353 3bbf b09c 913d 72db aa3e 13c5 b0be
00000060: 2c6c 163f 5743 c0be 8042 093f fa03 05bf
00000070: 6921 00bf f288 fdbe 414f 1e3f 984a 0cbf
00000080: e643 febe 90f5 26bf adec 27be 216a ca3e
00000090: 308e 403e 98e6 a13e 693a 93be 831e 8c3e
000000a0: 917a 02bf 0089 dd39 882f 0cbd c645 013e
000000b0: 2d44 a03e 6468 063f 5d2a a43c c6d5 1b3e
000000c0: 5e05 023d 2831 1cbb f031 d3be d18e ac3e
000000d0: a999 c13e 74dd 373e a403 9cbc d3b4 083f
000000e0: 9b61 1bbf 8bf2 18bf f695 d3be 27ea 31bf
000000f0: a935 0f3f ae30 b33d d659 dc3d 9013 c6be

model_2/encoder_2/attention_pool_reduce_4/padded_masked_var_len_conv_9/var_len_batch_normalization_15/batchnorm/add_1;model_2/encoder_2/attention_pool_reduce_4/padded_masked_var_len_conv_9/var_len_batch_normalization_15/batchnorm/mul_1;encoder_2/attention_pool_reduce_4/padded_masked_var_len_conv_9/bias;model_2/encoder_2/attention_pool_reduce_4/padded_masked_var_len_conv_9/BiasAdd;model_2/encoder_2/attention_pool_reduce_4/padded_masked_var_len_conv_9/var_len_batch_normalization_15/batchnorm/mul;model_2/encoder_2/attention_pool_reduce_4/padded_masked_var_len_conv_9/var_len_batch_normalization_15/batchnorm/sub f4 [64]
-0.709175 0.7561229 0.13035817 -0.5673802 0.23545435 -0.71420735 -0.6687542 0.66757685
-0.3604606 0.47006887 -0.60064435 -0.70372736 0.7291799 -0.64993227 0.67470634 0.33090296
-0.12165509 0.49413532 -0.6880893 0.5200231 -0.6867352 0.44094318 -0.67736864 -0.63037217
0.43847966 0.6663817 -0.8311966 -0.730061 -0.60961074 -0.32559687 0.5614972 0.5610212
-0.7487958 -0.5756406 0.29167002 -0.55124307 0.7178905 0.690229 0.5082458 0.66629094
-0.7095123 -0.18012631 0.63063383 -0.47918957 0.5385593 -0.79040796 -0.36123896 -0.67219573
-0.64348185 -0.7807571 -0.6334373 -0.60389125 0.32401633 -0.64290655 0.465513 -0.3387468
-0.25839636 0.27704206 -0.45306808 -0.33644402 -0.4905099 0.45131218 -0.7199666 0.21489865
00000000: 7e8c 35bf 4591 413f 9d7c 053e d43f 11bf
00000010: f21a 713e 4bd6 36bf 7a33 2bbf 51e6 2a3f
00000020: 4b8e b8be deac f03e d4c3 19bf 7a27 34bf
00000030: 89ab 3a3f f661 26bf 8eb9 2c3f 1d6c a93e
00000040: 4e26 f9bd 4eff fc3e 9f26 30bf 3c20 053f
00000050: e1cd 2fbf 4ec3 e13e 0868 2dbf 1260 21bf
00000060: 6880 e03e fe97 2a3f 4dc9 54bf 47e5 3abf
00000070: 730f 1cbf a2b4 a6be 48be 0f3f 169f 0f3f
00000080: 15b1 3fbf 2f5d 13bf c655 953e 441e 0dbf
00000090: acc7 373f d9b2 303f 661c 023f 0b92 2a3f
000000a0: 99a2 35bf 0873 38be 3871 213f 5658 f5be
000000b0: 06df 093f 2d58 4abf 50f4 b8be 0515 2cbf
000000c0: 3abb 24bf b3df 47bf f228 22bf 9e98 1abf
000000d0: 78e5 a53e 8695 24bf b857 ee3e 3870 adbe
000000e0: 874c 84be 75d8 8d3e 8af8 e7be 6442 acbe
000000f0: 1d24 fbbe 6412 e73e bb4f 38bf 640e 5c3e

model_2/encoder_2/attention_pool_reduce_5/padded_masked_var_len_conv_11/var_len_batch_normalization_17/batchnorm/add_1;model_2/encoder_2/attention_pool_reduce_5/padded_masked_var_len_conv_11/var_len_batch_normalization_17/batchnorm/mul_1;encoder_2/attention_pool_reduce_5/padded_masked_var_len_conv_11/bias;model_2/encoder_2/attention_pool_reduce_5/padded_masked_var_len_conv_11/BiasAdd;model_2/encoder_2/attention_pool_reduce_5/padded_masked_var_len_conv_11/var_len_batch_normalization_17/batchnorm/mul;model_2/encoder_2/attention_pool_reduce_5/padded_masked_var_len_conv_11/var_len_batch_normalization_17/batchnorm/sub f4 [64]
-0.7449577 -0.7141027 -0.6445896 -0.5122436 -0.59522367 -0.115007855 0.048590735 0.6344272
-0.6200051 0.4169224 0.6845289 -0.7086982 0.579107 0.6920343 0.63443 0.63683826
0.60945255 -0.7835996 -0.7774091 -0.6541042 -0.7959816 -0.7156634 0.3089425 0.74346006
-0.739073 -0.71781015 -0.6153723 0.2811641 0.5043473 -0.6770625 -0.13147855 0.6512428
0.6463673 -0.4575004 -0.7571282 -0.8120126 -0.7973062 -0.74128234 0.53184986 0.7295094
0.7584949 -0.09331533 0.69125 -0.6749734 0.5986358 -0.6662465 -0.29267317 0.602101
-0.22864726 -0.510525 0.6645172 0.48721212 -0.6568956 -0.09531962 -0.5397267 -0.69412386
-0.7973242 -0.5910745 -0.6834138 0.6395933 -0.6932093 -0.5809009 -0.503508 -0.712747
00000000: 8cb5 3ebf 6fcf 36bf d303 25bf 6622 03bf
00000010: 9460 18bf 3d89 ebbd 1407 473d d269 223f
00000020: a7b8 1ebf da76 d53e 493d 2f3f 3f6d 35bf
00000030: 5b40 143f 2929 313f 016a 223f d507 233f
00000040: 1505 1c3f fc99 48bf 4804 47bf 5f73 27bf
00000050: 73c5 4bbf b735 37bf b62d 9e3e 6653 3e3f
00000060: e333 3dbf 68c2 37bf 0a89 1dbf bef4 8f3e
00000070: e81c 013f f853 2dbf 50a2 06be d9b7 263f
00000080: 5478 253f 7e3d eabe 27d3 41bf 0fe0 4fbf
00000090: 421c 4cbf aec4 3dbf 5027 083f 21c1 3a3f
000000a0: b92c 423f 1c1c bfbd c3f5 303f 0fcb 2cbf
000000b0: 3240 193f 218f 2abf 42d9 95be 4b23 1a3f
000000c0: 8222 6abe c4b1 02bf cd1d 2a3f de73 f93e
000000d0: 4f2a 28bf ef36 c3bd 872b 0abf 1ab2 31bf
000000e0: 701d 4cbf a950 17bf 35f4 2ebf 63bc 233f
000000f0: 2a76 31bf ecb5 14bf e6e5 00bf 9676 36bf

model_2/encoder_2/base_q_dense_2/batch_normalization_2/batchnorm/add_1 f4 [28]
-0.7707419 -0.7876691 -0.667427 -0.59858984 -0.5671306 -0.5855065 -0.6416568 -0.64599335
-0.68312657 -0.59701186 -0.59609324 -0.6274935 -0.6249887 -0.6288014 -0.6344058 -0.99330294
-0.6434684 -0.72580624 -0.8499682 -0.6395374 -0.672971 -0.64135396 -0.6213642 -0.64321864
-0.7011949 -0.65924776 -0.62139237 -0.29436225
00000000: 574f 45bf afa4 49bf 7fdc 2abf 2f3d 19bf
00000010: 792f 11bf c1e3 15bf 9f43 24bf d25f 25bf
00000020: 62e1 2ebf c5d5 18bf 9199 18bf 6aa3 20bf
00000030: 42ff 1fbf 21f9 20bf 6b68 22bf 1a49 7ebf
00000040: 58ba 24bf 70ce 39bf 8497 59bf b9b8 23bf
00000050: d447 2cbf c62f 24bf b911 1fbf faa9 24bf
00000060: 8281 33bf 76c4 28bf 9213 1fbf a6b6 96be

model_2/encoder_2/base_q_dense_var_len_4/re_lu_1/Relu;model_2/encoder_2/base_q_dense_var_len_4/var_len_batch_normalization_12/batchnorm/add_1 f4 [64]
-0.33604747 -0.2639501 -0.3558377 -0.6697105 -0.62238795 -0.54084516 -0.36874744 -0.67418724
-0.24567427 -0.27631292 -0.31250715 -0.4467505 -0.31940734 -0.38371 -0.48416597 -0.26969928
-0.48284784 -0.13152133 -0.28044817 -0.09409392 -0.3713159 -0.4580584 -0.18981747 -0.4027769
-0.3109184 -0.39948916 -0.9352118 -0.6053956 -0.2951364 -0.6981932 -0.2335783 -0.66816974
-0.54520273 -0.4469791 -0.5759798 -0.44738317 -0.4846881 -0.5854344 -0.57185304 -0.4779799
-0.43577918 -0.29168087 -0.39227015 -0.5668125 -0.5011586 -0.30669808 -0.41406515 -0.4129983
-0.5234817 -0.473567 -0.12064424 -0.5443204 -0.65486634 -0.281703 -0.2955007 -0.49153602
-0.4496237 -0.24138924 -0.34059954 -0.36308315 -0.4058599 -0.5103497 -0.37705022 -0.2344475
00000000: 6a0e acbe 7824 87be 5c30 b6be 2672 2bbf
00000010: d154 1fbf d474 0abf 77cc bcbe 8997 2cbf
00000020: 0992 7bbe e378 8dbe f000 a0be 7bbc e4be
00000030: 5c89 a3be a375 c4be 9ae4 f7be 0616 8abe
00000040: d537 f7be 87ad 06be e796 8fbe 50b4 c0bd
00000050: 1e1d bebe a186 eabe 835f 42be c638 cebe
00000060: b230 9fbe d889 ccbe 0a6a 6fbf 35fb 1abf
00000070: 1e1c 97be cabc 32bf 262f 6fbe 2c0d 2bbf
00000080: 6892 0bbf 72da e4be 6a73 13bf 680f e5be
00000090: 0a29 f8be 07df 15bf f664 12bf c8b9 f4be
000000a0: 731e dfbe 3257 95be a2d7 c8be a01a 11bf
000000b0: ee4b 00bf 8807 9dbe 5900 d4be 8374 d3be
000000c0: e602 06bf 6077 f2be 5414 f7bd 9558 0bbf
000000d0: 52a5 27bf 603b 90be de4b 97be 9caa fbbe
000000e0: 1435 e6be be2e 77be 1063 aebe 09e6 b9be
000000f0: decc cfbe 47a6 02bf ba0c c1be 0113 70be

model_2/encoder_2/base_q_dense_var_len_5/re_lu_1/Relu;model_2/encoder_2/base_q_dense_var_len_5/var_len_batch_normalization_13/batchnorm/add_1 f4 [64]
-0.123777166 -0.17898795 -0.07870147 -0.080480434 -0.29124105 -0.23544411 -0.3037531 -0.10489665
-0.20510885 -0.15923047 -0.30265456 0.09244229 -0.00021666288 -0.17971267 -0.21384284 -0.18368542
-0.19643147 -0.05169389 0.07679239 -0.05490479 -0.16050968 -0.08768571 -0.1304521 -0.19307223
-0.15616903 -0.20584348 -0.33480474 -0.20716566 -0.023335248 -0.196551 -0.24192272 0.05350027
-0.14828521 -0.23144056 -0.110917196 -0.0036427043 -0.11253367 -0.2830494 -0.15279356 -0.24972603
-0.005390726 -0.09501576 -0.16585276 -0.13236979 -0.07052888 -0.06942578 -0.13783696 -0.045897692
-0.05288249 -0.16340005 -0.19577715 -0.070827454 -0.11162092 -0.26905513 -0.2853056 0.015697708
-0.0959257 -0.27448773 -0.24659497 -0.26291972 -0.20088637 -0.03445927 -0.22427556 -0.093619436
00000000: e27e fdbd 9e48 37be 3c2e a1bd edd2 a4bd
00000010: 8c1d 95be 4318 71be 8785 9bbe 0ed4 d6bd
00000020: 0e08 52be 500d 23be 8af5 9abe 6252 bd3d
00000030: 0030 63b9 9906 38be 9ef9 5abe 0818 3cbe
00000040: 5525 49be f9bc 53bd 5445 9d3d d8e3 60bd
00000050: a65c 24be 9194 b3bd 3c95 05be bab4 45be
00000060: c6ea 1fbe a2c8 52be 876b abbe 3c23 54be
00000070: 9029 bfbc aa44 49be 97ba 77be 1923 5b3d
00000080: 14d8 17be c1fe 6cbe 8e28 e3bd 70ba 6ebb
00000090: 0e78 e6bd daeb 90be ea75 1cbe 2eb8 7fbe
000000a0: b0a4 b0bb 9f97 c2bd 4ed5 29be f28b 07be
000000b0: 7271 90bd 1a2f 8ebd 2225 0dbe 38ff 3bbd
000000c0: 4f9b 58bd 5852 27be ce79 48be fc0d 91bd
000000d0: 8299 e4bd 98c1 89be 9313 92be 7b98 803c
000000e0: b274 c4bd a889 8cbe 6483 7cbe 6a9d 86be
000000f0: 28b5 4dbe 2a25 0dbd 7ea8 65be 8cbb bfbd

model_2/encoder_2/attention_pool_reduce_4/padded_masked_var_len_conv_8/Conv2D f4 [64, 1, 2, 64]
-0.009374032 0.0233035 -0.12484539 -0.006686982 0.13135889 -0.12525515 0.078486994 -0.086775064
-0.12125885 -0.15117103 -0.097505406 -0.12847605 0.009099942 0.026715685 0.0033275886 -0.17868313
-0.16589238 0.052041486 0.0095333755 -0.020406714 0.024614591 -0.1561653 -0.089893505 0.05591257
-0.18983464 -0.11032798 0.024330275 -0.055601485 -0.12863865 0.024437007 0.10755064 -0.016760757
0.02581974 0.047223546 -0.01564534 -0.052639008 0.11225392 -0.001853974 -0.12206008 -0.094611034
-0.074966684 0.056513246 0.09011359 0.113171175 0.113048784 -0.1881183 0.044156138 -0.10668932
-0.004826599 -0.089465305 -0.11226134 0.18338718 -0.1500262 -0.068298034 -0.05697044 -0.07405844
0.05217492 0.052658703 0.10042319 -0.10892223 0.02426565 -0.11926013 -0.121419445 0.17420271
-0.013366716 -0.10721446 -0.0069245733 -0.03799578 -0.20959133 -0.031980544 -0.12165848 -0.2564231
-0.049422167 0.03828087 0.059751753 -0.089508675 -0.09410937 -0.033306114 -0.07802359 -0.13244058
0.045992833 -0.017634945 -0.016063254 -0.014620369 -0.06778089 0.07204282 0.10145189 -0.11532092
0.08443297 0.007980112 0.09356137 -0.1043127 -0.02213819 -0.17124838 0.023001606 -0.061916426
-0.09635779 0.053843167 -0.1227697 0.024596374 0.06675655 -0.111780256 -0.0804541 -0.10893725
0.0027330786 0.11734673 0.03949477 0.0011659785 -0.069399215 -0.035570614 0.047014482 0.06510985
-0.06962425 -0.036212623 0.05594224 0.021128384 -0.16717854 0.06190513 -0.0155395605 -0.094650924
-0.03274022 -0.0022518293 0.053966604 0.12828031 0.0030244966 0.027218524 -0.010628422 -0.1484845
-0.123202264 -0.027408546 -0.13110429 0.04879018 -0.050871607 0.05869432 0.19979683 -0.05525486
0.18093912 -0.11166909 -0.019181082 0.159044 0.11025875 0.13598397 0.12624852 -0.027963
-0.19538568 -0.044073783 0.04183576 -0.0062847403 0.24256511 0.14535604 0.2100403 0.2727321
-0.285527 0.1735793 0.05207195 -0.08153034 -0.1435045 0.011002715 0.06380791 0.06730879
0.14165035 0.10239346 0.009194022 0.18389247 0.045816608 -0.13114084 0.03907745 0.169334
-0.13579085 -0.20242082 -0.14971541 0.12645967 -0.17750332 -0.07761615 -0.12566629 -0.28229663
0.07576697 0.24071088 -0.20495102 0.056886666 0.15625894 -0.08394203 -0.19114663 -0.042562842
-0.08803374 -0.07828674 0.056439098 -0.14276749 -0.11586899 0.10384939 0.015357955 -0.06410396
-0.09171045 0.07175925 -0.08199993 -0.15634343 0.016909473 -0.12376251 0.08924016 0.112409495
-0.034667946 -0.08600539 0.043506183 -0.09142446 0.065160766 -0.18467304 0.015565776 0.1523763
0.061687045 0.12660713 -0.08995059 0.043361872 -0.1806929 0.034690782 -0.078952745 0.12383776
0.13602644 0.10227949 0.053543307 0.3737586 -0.13106853 0.060813207 0.1421942 0.18723032
0.21221952 0.011002871 0.24335857 0.025761899 -0.07102955 0.2682481 0.2111435 -0.1164096
0.11448789 0.0039002618 -0.05208904 0.09303015 -0.05055838 -0.0725994 0.11698027 0.12795524
-0.011343196 0.01769236 0.1803843 0.13347717 0.030951133 0.050022908 -0.267227 0.1688332
0.10654842 -0.017194085 0.1469116 0.18448079 -0.14190905 0.11709716 0.116489455 0.0891686
00000000: 8a95 19bc fbe6 be3c f1ae ffbd 781e dbbb
00000010: f282 063e e342 00be cabd a03d 20b7 b1bd
00000020: 8f56 f8bd 94cc 1abe eab0 c7bd 3a8f 03be
00000030: ec17 153c dada da3c ac13 5a3b b6f8 36be
00000040: b1df 29be 7429 553d e031 1c3c fb2b a7bc
00000050: 8aa4 c93c cce9 1fbe 161a b8bd 9404 653d
00000060: 0364 42be a3f3 e1bd 4950 c73c 62be 63bd
00000070: dab9 03be 1e30 c83c 8343 dc3d db4d 89bc
00000080: eb83 d33c 7a6d 413d a82a 80bc 009c 57bd
00000090: 62e5 e53d 0b01 f3ba a3fa f9bd 6ec3 c1bd
000000a0: 2288 99bd 6f7a 673d 798d b83d 4ac6 e73d
000000b0: 1f86 e73d 15a2 40be 11dd 343d ee7f dabd
000000c0: 7228 9ebb 9639 b7bd 46e9 e5bd d9c9 3b3e
000000d0: 78a0 19be d7df 8bbd d659 69bd f4ab 97bd
000000e0: 5eb5 553d a7b0 573d acaa cd3d 9e12 dfbd
000000f0: c2c8 c63c a83e f4bd c2aa f8bd 3262 323e
00000100: 1200 5bbc 4193 dbbd 88e7 e2bb 77a1 1bbd
00000110: 1c9f 56be 08fe 02bd 1528 f9bd e349 83be
00000120: e66e 4abd 67cc 1c3d 41be 743d 5350 b7bd
00000130: 6abc c0bd fe6b 08bd d5ca 9fbd 819e 07be
00000140: fb62 3c3d 2977 90bc 1697 83bc 468a 6fbc
00000150: b5d0 8abd 308b 933d 02c6 cf3d 602d ecbd
00000160: 31eb ac3d 04bf 023c 1b9d bf3d e6a1 d5bd
00000170: 265b b5bc bc5b 2fbe dd6d bc3c 149c 7dbd
00000180: 3c57 c5bd a78a 5c3d ae6e fbbd 567e c93c
00000190: a8b7 883d 0ced e4bd 1fc5 a4bd 7e1a dfbd
000001a0: 731d 333b 7b53 f03d 45c5 213d bfd3 983a
000001b0: 2d21 8ebd 7eb2 11bd 4292 403d 5058 853d
000001c0: 2997 8ebd b053 14bd b123 653d 6f15 ad3c
000001d0: da30 2bbe 3c90 7d3d a499 7ebc 58d8 c1bd
000001e0: 9c1a 06bd 6d93 13bb 160c 5d3d ea5b 033e
000001f0: a236 463b 62f9 de3c d522 2ebc 520c 18be
00000200: 7851 fcbd e387 e0bc 3440 06be 36d8 473d
00000210: bf5e 50bd 7569 703d 8a97 4c3e ec52 62bd
00000220: 1b48 393e c4b2 e4bd a521 9dbc 6edc 223e
00000230: 57cf e13d 623f 0b3e 4b47 013e a912 e5bc
00000240: 2f13 48be b686 34bd f95b 2b3d 39f0 cdbb
00000250: fd62 783e 37d8 143e ce14 573e 8ba3 8b3e
00000260: 9830 92be c6be 313e 6649 553d 61f9 a6bd
00000270: d8f2 12be bb44 343c b9ad 823d 31d9 893d
00000280: ca0c 113e aab3 d13d 86a2 163c 4f4e 3c3e
00000290: 32aa 3b3d c949 06be ad0f 203d e465 2d3e
000002a0: c20c 0bbe 6747 4fbe ff4e 19be a57e 013e
000002b0: 6ec3 35be 37f5 9ebd aaae 00be 2f89 90be
000002c0: b72b 9b3d ea7c 763e aede 51be fe01 693d
000002d0: 5802 203e cde9 abbd f1bb 43be 6056 2ebd
000002e0: 094b b4bd cc54 a0bd af2c 673d a431 12be
000002f0: b94c edbd fdae d43d ef9f 7b3c f048 83bd
00000300: b0d2 bbbd 83f6 923d 94ef a7bd 7e18 20be
00000310: bc85 8a3c 3377 fdbd 8cc3 b63d f336 e63d
00000320: faff 0dbd 9823 b0bd 8a33 323d bf3c bbbd
00000330: 0273 853d ee1a 3dbe 9907 7f3c 8808 1c3e
00000340: 8eab 7c3d 4da5 013e 0438 b8bd 389c 313d
00000350: 8f07 39be ec17 0e3d fab1 a1bd a79e fd3d
00000360: 844a 0b3e e977 d13d 3a50 5b3d 4a5d bf3e
00000370: d436 06be 4517 793d 5b9b 113e 4eb9 3f3e
00000380: 1350 593e 6345 343c fd32 793e 9e0a d33c
00000390: f177 91bd d157 893e 0036 583e 2868 eebd
000003a0: a078 ea3d 899b 7f3b 515b 55bd 9786 be3d
000003b0: 4e16 4fbd ffae 94bd 5a93 ef3d b306 033e
000003c0: d0d8 39bc 91ef 903c a9b6 383e 3dae 083e
000003d0: 3b8d fd3c d2e4 4c3d fad1 88be 9ce2 2c3e
000003e0: 0f36 da3d 9cda 8cbc ff6f 163e 88e8 3c3e
000003f0: 9b50 11be a3d0 ef3d 0692 ee3d 079e b63d

model_2/encoder_2/attention_pool_reduce_5/padded_masked_var_len_conv_10/Conv2D f4 [64, 1, 3, 64]
0.15364404 -0.09033115 0.05583879 0.0045040566 0.0224935 -0.012780087 0.0916658 0.09633787
-0.06880936 0.039471246 0.047082007 -0.048472222 0.07107341 -0.111912146 0.1370093 -0.034082472
0.017184118 0.07726563 -0.04261867 -0.10058884 0.005563511 0.104529075 -0.047275875 -0.0029335518
0.056720268 -0.069706306 -0.0040311306 -0.031951673 0.086355984 0.10794573 0.16671447 -0.028310373
-0.049170982 0.022495197 0.133061 -0.08431173 0.1609399 -0.04901541 0.115734555 0.10704802
-0.015369473 0.033105932 -0.046882935 -0.018024396 0.1104223 0.02398753 -0.019680284 -0.066084616
0.11186153 0.07791093 0.013734399 -0.0065401862 -0.041367475 0.078153774 0.121315435 0.10243878
-0.03373853 0.10418044 0.10810106 0.05564106 -0.119354255 -0.047600463 -0.102668546 0.13230018
-0.078767255 0.19332887 0.13775781 0.030557094 -0.16342944 0.0314058 0.14051372 -0.0045590913
-0.023117222 0.14821884 0.07605716 -0.111098446 -0.0363389 0.074926 0.062936805 0.03489908
0.062103115 0.04246803 -0.047777805 -0.04075462 0.10911589 0.11021525 -0.06939222 0.056216553
0.064357616 0.12072862 0.07649723 0.08782844 0.0016510756 0.09431636 -0.07512543 0.00063076074
0.062574305 -0.123644955 -0.10720141 0.1413734 -0.12366566 0.027129302 -0.13767913 0.115641534
0.01933127 -0.113779694 0.07125643 -0.007658007 0.052766483 0.11731427 0.067537814 0.11062916
-0.10489213 0.06296468 0.09532983 -0.014757557 0.14204742 0.20631982 -0.00051465177 0.08367487
-0.077678286 0.12275896 -0.07054823 0.06179398 0.04617443 0.1612258 0.15284464 -0.06067873
-0.1252831 -0.015253424 -0.021873312 -0.041860607 0.1893818 -0.13752064 0.11636538 0.10795336
0.05378581 -0.106653705 -0.083086714 0.12844723 -0.07711888 0.06358715 0.046677526 0.047487132
0.11102988 -0.15129869 -0.028185358 -0.12688348 0.004619365 0.028124526 -0.049066015 0.010775821
0.06685936 -0.13474478 -0.045707166 0.048093546 -0.12528487 -0.07777744 0.1406887 -0.061302267
-0.14426984 -0.04788395 0.048700098 -0.112668246 0.098313116 0.18434094 0.10158119 -0.124671854
0.0043350062 0.039044973 -0.07855216 -0.04118881 -0.023366695 0.072737366 -0.03312219 0.05512565
0.08307682 -0.08090692 -0.11845031 -0.10370433 -0.047359753 0.023337977 -0.019923463 0.13164903
0.013861712 0.039866887 0.015075635 0.0054772776 -0.17357682 8.599175e-05 -0.062194515 -0.13269326
-0.1372894 -0.06646256 0.14090809 -0.03489891 0.1037556 -0.053908937 -0.08733826 0.023319662
0.18941884 0.067994505 0.0014357575 0.03192516 0.0023116344 0.15465362 0.12365628 0.070503764
-0.10833349 -0.100698546 0.019533664 -0.07911193 0.13710465 0.05340451 0.121115275 0.14991888
0.032820173 -0.048457842 -0.06050804 -0.06309915 0.050650124 0.16536325 0.13523635 -0.15129504
-0.154731 -0.15286095 0.04574781 -0.10142642 -0.0013335107 0.1854275 0.14402607 0.060290374
0.055322748 -0.071954824 -0.15514226 0.066415556 0.08606195 -0.028677939 0.088175304 0.10887669
0.034488466 -0.012847395 0.14613748 0.023721501 0.09834599 -0.02903421 0.023111591 -0.017421803
-0.09303956 0.0200876 -0.15362887 -0.053173013 -0.1279723 0.008041322 -0.12132537 -0.17837565
00000000: dd54 1d3e 8aff b8bd 37b7 643d c496 933b
00000010: 4a44 b83c 9263 51bc 47bb bb3d ca4c c53d
00000020: eceb 8cbd 9aac 213d 10d9 403d cf8a 46bd
00000030: f08e 913d 3232 e5bd 2a4c 0c3e 109a 0bbd
00000040: b5c5 8c3c 713d 9e3d ea90 2ebd 8601 cebd
00000050: 1d4e b63b 5713 d63d 59a4 41bd d540 40bb
00000060: 8353 683d 2ec2 8ebd 9317 84bb c2df 02bd
00000070: 68db b03d a712 dd3d 33b7 2a3e 28eb e7bc
00000080: 8367 49bd d947 b83c 2541 083e a1ab acbd
00000090: 6ecd 243e 62c4 48bd 3d06 ed3d fe3b db3d
000000a0: 3ed0 7bbc 169a 073d 5208 40bd e6a7 93bc
000000b0: 1625 e23d 7f81 c43c 8c38 a1bc 5f57 87bd
000000c0: a817 e53d c48f 9f3d 3f06 613c 0f4f d6bb
000000d0: f170 29bd 160f a03d 3a74 f83d 6ccb d13d
000000e0: 6a31 0abd 8e5c d53d 1764 dd3d e1e7 633d
000000f0: 0170 f4bd b4f8 42bd e343 d2bd b379 073e
00000100: ba50 a1bd 01f8 453e 6210 0d3e df52 fa3c
00000110: 0c5a 27be 5ea3 003d d4e2 0f3e 6e64 95bb
00000120: 5460 bdbc aec6 173e dbc3 9b3d 9587 e3bd
00000130: 19d8 14bd cd72 993d 03e5 803d 56f2 0e3d
00000140: d65f 7e3d f5f2 2d3d a9b2 43bd 51ee 26bd
00000150: 2778 df3d 88b8 e13d 821d 8ebd 5443 663d
00000160: edcd 833d 9140 f73d 94aa 9c3d 66df b33d
00000170: e768 d83a f028 c13d 5ddb 99bd a359 253a
00000180: f526 803d 9139 fdbd 6a8c dbbd 30c4 103e
00000190: 6c44 fdbd 453e de3c c2fb 0cbe 78d5 ec3d
000001a0: 9d5c 9e3c 5405 e9bd e4ee 913d 05f0 fabb
000001b0: ab21 583d 7742 f03d 4451 8a3d 8b91 e23d
000001c0: afd1 d6bd a0f3 803d 493c c33d aec9 71bc
000001d0: e174 113e 8145 533e b2e9 06ba bb5d ab3d
000001e0: cb15 9fbd 0d69 fb3d 977b 90bd af1b 7d3d
000001f0: 6621 3d3d 6018 253e 4e83 1c3e 438a 78bd
00000200: 374a 00be 7fe9 79bc a92f b3bc 0776 2bbd
00000210: 4ded 413e 36d2 0cbe f950 ee3d a716 dd3d
00000220: 824e 5c3d 426d dabd 5e29 aabd ac87 033e
00000230: 81f0 9dbd fb39 823d ef30 3f3d de81 423d
00000240: a263 e33d 0bee 1abe fbe4 e6bc beed 01be
00000250: 0b5e 973b 6865 e63c 72f9 48bd 128d 303c
00000260: 8fed 883d 89fa 09be 7037 3bbd bdfd 443d
00000270: ad4a 00be c749 9fbd b310 103e 1618 7bbd
00000280: 79bb 13be f621 44bd c179 473d 9cbe e6bd
00000290: 6358 c93d dfc3 3c3e cd09 d03d f553 ffbd
000002a0: ab0c 8e3b 9fed 1f3d f4df a0bd 99b5 28bd
000002b0: 836b bfbc 54f7 943d 22ab 07bd 6fcb 613d
000002c0: 2e24 aa3d 87b2 a5bd 1396 f2bd f062 d4bd
000002d0: 4dfc 41bd 492f bf3c 8836 a3bc 01cf 063e
000002e0: 3c1c 633c 764b 233d ccff 763c bc7a b33b
000002f0: 1fbe 31be 7856 b438 adbf 7ebd bee0 07be
00000300: 9895 0cbe 861d 88bd 364a 103e 29f2 0ebd
00000310: d17d d43d 9ecf 5cbd 67de b2bd e008 bf3c
00000320: 03f7 413e b440 8b3d 0730 bc3a f5c3 023d
00000330: ca7e 173b 855d 1e3e 813f fd3d 4764 903d
00000340: f3dd ddbd 0a3b cebd 1005 a03c 7005 a2bd
00000350: 2965 0c3e b0be 5a3d 490b f83d 5684 193e
00000360: 726e 063d bb7b 46bd 47d7 77bd 213a 81bd
00000370: 8176 4f3d fc54 293e 667b 0a3e 16ed 1abe
00000380: ce71 1ebe 9587 1cbe 0e62 3b3d a8b8 cfbd
00000390: 32c9 aeba b5e0 3d3e 927b 133e 0af3 763d
000003a0: 1b9a 623d 0d5d 93bd 9ddd 1ebe e104 883d
000003b0: 3f41 b03d ffed eabc 4195 b43d befa de3d
000003c0: c743 0d3d e17d 52bc 10a5 153e 9853 c23c
000003d0: 9f69 c93d 27d9 edbc 8554 bd3c 2bb8 8ebc
000003e0: 868b bebd c08e a43c e350 1dbe f2cb 59bd
000003f0: 2c0b 03be c0bf 033c 7079 f8bd 1ba8 36be

model_2/encoder_2/attention_pool_reduce_4/padded_masked_var_len_conv_9/Conv2D f4 [64, 1, 2, 64]
0.04723472 0.08762082 0.05591141 0.029938838 -0.033009995 -0.030200057 0.07004355 0.009599911
0.080853365 0.09536823 -0.03198061 0.10968641 0.01342936 -0.014156217 0.07763723 -0.017744798
-0.025311599 -0.02822132 -0.013098041 -0.002096016 0.025155725 6.947186e-05 -0.026928946 0.06660296
0.08839672 0.021600401 0.060466647 -0.032422554 -0.03523338 0.011225728 0.02422683 0.06982826
-0.045956362 0.022083122 -0.018939348 -0.013438089 -0.0071213045 0.009412613 0.06383674 0.030981762
0.016054505 -0.05261671 0.047645792 0.035702266 -0.040911403 0.0047863945 -0.030724656 0.07244444
0.051731385 -0.04694037 0.05277711 0.012942542 -0.033870332 0.047741346 -0.033971097 -0.00035082595
-0.013459872 -0.056826767 0.017724622 0.08446847 0.0108535 0.08837453 0.068245955 0.10883548
-0.0024247274 -0.015588824 -0.0002095868 0.018188056 0.029775294 0.055657163 0.027270101 0.057125963
0.030338204 -0.02150719 0.051891953 0.04112831 0.0031304972 0.06978385 0.0033838584 0.042654283
0.07231564 0.041365013 -0.0007304617 0.052737966 0.049633257 0.008558892 0.0024330146 -0.015686065
-0.033621255 0.0625523 0.07096435 0.029309953 0.0068981 -0.012812559 0.039235733 0.015058628
0.016914152 -0.023779355 0.021326195 -0.026303463 0.029822063 -0.022733307 -0.03540302 0.06541813
-0.045386866 -0.030561186 -0.021741832 0.029161805 0.08124948 0.03432831 0.053823058 0.04698369
0.01537185 -0.009005257 0.016284443 0.04229768 0.014067639 -0.025170563 -0.036953695 -0.06752537
0.0009938469 0.014947394 0.070282996 0.005216209 0.019530011 -0.046453297 -0.048062183 0.04491512
0.059705935 -0.052786965 -0.04126897 0.0133764325 -0.04856111 0.056494836 -0.05932158 0.021368306
-0.01788314 -0.052352253 -0.08876578 -0.04688549 0.052077033 -0.0023236298 0.104417466 -0.07535064
0.02823372 -0.001681297 -0.13420737 -0.027414668 -0.019020015 0.023489472 -0.052134667 0.00904322
-0.0048085283 -0.08615839 0.061458126 -0.07918017 0.048896007 0.043204714 -0.092553094 -0.04898047
-0.034786317 -0.07707145 0.0219056 0.0067923395 0.022652246 0.009879092 0.03563779 -0.07482003
-0.0035365934 0.0015070607 -0.12408795 -0.048640903 0.097446986 -0.03685835 0.056881554 -0.05743705
0.02451731 0.04964057 0.045538284 0.0020911922 -0.08086104 0.004074451 -0.038750134 -0.09158633
-0.029389909 0.0101363 -0.13724229 -0.052289337 -0.076290004 -0.038700096 0.09701044 -0.09956646
-0.09970717 -0.050133843 0.0027464614 -0.06537626 0.05762975 0.009160412 0.077487156 -0.017781561
-0.03856634 0.02464373 -0.10955965 -0.107267626 -0.004356885 -0.028162694 -0.11477201 0.0042139585
-0.030783959 0.08856285 -0.0057625305 0.083703086 0.012480854 0.012985551 0.069220945 0.06418924
-0.08239501 0.008388636 -0.09912009 0.022436807 -0.09308844 0.044657286 -0.027523726 -0.031346805
-0.10841721 -0.10710378 -0.036664788 -0.092021555 -0.003224128 -0.10527688 -0.033486824 -0.049490627
-0.036253795 -0.010206639 -0.044243082 0.022594089 0.040978655 -0.051868018 -0.09485517 -0.103850394
0.018556831 0.08563647 0.0008455525 0.0034632972 0.074432164 -0.020499637 -0.054105226 0.0016546809
0.079026364 -0.006220912 -0.047847893 -0.03777311 -0.10469257 0.019918038 0.049112204 -0.014351644
00000000: 3279 413d 8b72 b33d 5d03 653d 4b42 f53c
00000010: 7d35 07bd 1c66 f7bc fe72 8f3d f248 1d3c
00000020: 7396 a53d 6b50 c33d 1afe 02bd 45a3 e03d
00000030: d206 5c3c 7aef 67bc 4500 9f3d 8a5d 91bc
00000040: 455a cfbc 6630 e7bc 2a99 56bc 505d 09bb
00000050: 6113 ce3c 6cb1 9138 189a dcbc 2267 883d
00000060: 5709 b53d 53f3 b03c e0ab 773d 83cd 04bd
00000070: e050 10bd 1eec 373c 5877 c63c 1e02 8f3d
00000080: bd3c 3cbd aae7 b43c b126 9bbc 6e2b 5cbc
00000090: d559 e9bb 5c37 1a3c d6bc 823d 77cd fd3c
000000a0: bd84 833c 9f84 57bd 3c28 433d 8a3c 123d
000000b0: b792 27bd 30d7 9c3b 46b2 fbbc c05d 943d
000000c0: 4ae4 533d 8c44 40bd d02c 583d f50c 543c
000000d0: 9ebb 0abd 6e8c 433d 4725 0bbd 10ef b7b9
000000e0: cc86 5cbc 2fc3 68bd 3a33 913c cefd ac3d
000000f0: e1d2 313c b5fd b43d 89c4 8b3d 23e5 de3d
00000100: 2de8 1ebb 4468 7fbc 87c4 5bb9 1eff 943c
00000110: 51eb f33c c4f8 633d 8c65 df3c eafc 693d
00000120: d387 f83c d92f b0bc a88c 543d 2976 283d
00000130: 0729 4d3b d6ea 8e3d b9c3 5d3b 42b6 2e3d
00000140: 391a 943d 5c6e 293d 747c 3fba c403 583d
00000150: 3e4c 4b3d 983a 0c3c 3673 1f3b 1080 80bc
00000160: 71b6 09bd 6c1b 803d c255 913d 6d1b f03c
00000170: 7509 e23b c4eb 51bc a6b5 203d 77b8 763c
00000180: 8c8f 8a3c eccc c2bc 46b4 ae3c 5c7a d7bc
00000190: 664d f43c 333b babc c202 11bd f1f9 853d
000001a0: 94e7 39bd 745b fabc ed1b b2bc bde4 ee3c
000001b0: 2166 a63d d89b 0c3d 9175 5c3d f871 403d
000001c0: 36da 7b3c c98a 13bc f466 853c 5540 2d3d
000001d0: f47b 663c 7f32 cebc c25c 17bd be4a 8abd
000001e0: f843 823a eae5 743c 88f0 8f3d bcec aa3b
000001f0: 67fd 9f3c d045 3ebd dadc 44bd ebf8 373d
00000200: 368e 743d 2537 58bd a709 29bd d328 5b3c
00000210: 04e8 46bd 2167 673d 2ffb 72bd 960c af3c
00000220: aa7f 92bc 516f 56bd d5ca b5bd 000b 40bd
00000230: ba4e 553d 0a48 18bb d3d8 d53d 7051 9abd
00000240: 674a e73c f75e dcba a86d 09be ba94 e0bc
00000250: ddcf 9bbc fe6c c03c 298b 55bd 042a 143c
00000260: dc90 9dbb cf73 b0bd 84bb 7b3d 3729 a2bd
00000270: 2e47 483d 6df7 303d 7a8c bdbd bf9f 48bd
00000280: 197c 0ebd a3d7 9dbd 5f73 b33c 4692 de3b
00000290: 3491 b93c eadb 213c eef8 113d 3e3b 99bd
000002a0: 31c6 67bb 9188 c53a d321 febd af3b 47bd
000002b0: 4992 c73d c8f8 16bd a2fc 683d 1d43 6bbd
000002c0: 87d8 c83c e953 4b3d 5a86 3a3d 620c 093b
000002d0: 799a a5bd f982 853b 76b8 1ebd 9d91 bbbd
000002e0: 1bc3 f0bc b912 263c 3e89 0cbe 582d 56bd
000002f0: ef3d 9cbd fe83 1ebd 69ad c63d 80e9 cbbd
00000300: 4633 ccbd 2559 4dbd fafd 333b fde3 85bd
00000310: 2c0d 6c3d 8d15 163c 96b1 9e3d a3aa 91bc
00000320: bdf7 1dbd a6e1 c93c cf60 e0bd 21af dbbd
00000330: 33c4 8ebb 73b5 e6bc 960d ebbd 3f15 8a3b
00000340: a42e fcbc 7160 b53d 9cd3 bcbb 866c ab3d
00000350: 7f7c 4c3c 59c1 543c b6c3 8d3d a675 833d
00000360: b7be a8bd 7d70 093c 79ff cabd 65cd b73c
00000370: 27a5 bebd 8fea 363d 7079 e1bc 8265 00bd
00000380: d809 debd 3a59 dbbd d12d 16bd cc75 bcbd
00000390: e44b 53bb 689b d7bd 7b29 09bd afb6 4abd
000003a0: dc7e 14bd bf39 27bc 3c38 35bd 3d17 b93c
000003b0: 3cd9 273d 8f73 54bd 6d43 c2bd 84af d4bd
000003c0: 7f04 983c 2c62 af3d 11a8 5d3a 7cf8 623b
000003d0: e46f 983d dbee a7bc 719d 5dbd e1e1 d83a
000003e0: 93d8 a13d cbd8 cbbb 27fc 43bd fab7 1abd
000003f0: 0f69 d6bd 272b a33c e129 493d 2823 6bbc

model_2/encoder_2/attention_pool_reduce_5/padded_masked_var_len_conv_11/Conv2D f4 [64, 1, 3, 64]
-0.03730072 -0.005070877 0.069570795 0.012045245 -0.030235061 -0.010091894 0.051682476 -0.01613461
0.0117213745 0.07616509 0.03644763 0.048689142 0.062751226 0.03650463 -0.006837215 0.06923159
0.053424925 0.0739787 -0.009273372 0.052004047 0.018844659 0.03144882 -0.006626287 -0.0016892828
0.0405253 0.001641953 -0.022588791 -0.020781387 0.017855745 -0.021773063 0.060073346 0.006293695
-0.04443255 0.006724881 -0.03104788 0.06251518 -0.009713182 0.01206786 -0.0012578111 -0.03524377
-0.012816176 0.0264945 0.0007961858 0.008886334 0.02852425 0.037906624 -0.00042309464 0.04908694
0.04054762 0.030786544 0.02594016 -0.020898994 0.022704123 -0.021802684 0.0053221574 0.020833053
0.025491776 0.059090387 0.054992456 0.0032439523 0.023262914 -0.01630327 0.026643498 0.04048213
0.01688686 0.037802987 0.032636106 0.0019039874 0.04437538 0.03976684 0.05470336 0.006007982
-0.020373903 0.06713931 0.053239003 0.039731983 0.0013719454 0.06156916 -0.00626148 0.05622935
0.021825608 0.02677975 0.008686899 0.056980055 0.004615123 0.0032103844 0.06953206 -0.015234142
0.0067718574 0.016370784 -0.07710808 0.036654223 -0.014410402 -0.0043509984 -0.005870928 0.022215312
0.036051676 -0.033748038 0.04345591 -0.021114489 0.02434318 0.023376284 0.0149886105 0.049136493
0.03935695 0.024796592 -0.010943313 -0.030192243 -0.023508597 -0.015838318 0.0054477467 0.02318305
0.030982444 -0.011093768 -0.020397572 0.019134244 0.011300034 -0.012901773 -0.058615316 0.0034454062
0.041216172 -0.014939548 0.025156908 -0.018652447 0.024651561 -0.004831632 -0.011180274 0.015847811
-0.012518943 0.00048530358 -0.004629975 0.03229925 0.051412206 0.04276589 -0.019796535 -0.026210776
0.04125185 0.044582225 0.012765134 0.027368996 0.004831705 0.013050314 -0.043084256 0.014296831
0.023106348 0.019830689 -0.027585328 0.014164667 0.0069923266 -0.017142532 0.037842605 0.0007807967
0.004710904 -0.023367532 -0.037845228 -0.022617089 0.0067872927 0.034870863 0.00079916744 -0.042616062
0.0025766373 -0.031912178 -0.017218718 0.03097153 0.011615317 0.013906438 0.016512688 -0.0030221832
0.05597186 -0.028443407 0.021943608 0.051290505 -0.020100927 0.04042026 -0.0016336715 -0.024203464
0.037190873 0.05188324 0.040562063 0.014479708 0.01742832 -0.0064412095 -0.056243517 0.011311159
-0.0060639353 0.03760429 0.014464255 0.02427214 0.08219126 -0.028212003 0.061607093 -0.027241541
0.03561126 -0.0129780155 -0.013804617 0.013321773 0.03210102 0.031167552 -0.009432911 0.024042413
-0.009046907 0.021198498 -0.013813113 0.047554277 0.03974312 0.017826777 0.05577669 0.0058139646
0.055203047 -0.003228921 0.019349229 0.040050995 0.04879175 0.0033098287 -0.008060759 -0.0036309245
-0.042585835 0.01566844 -0.04037164 0.038330507 -0.0036027553 0.009460296 -0.02222702 -0.031255882
-0.008837147 0.032189358 0.019559076 0.026918042 0.028256789 0.06361661 -0.03576032 0.04886521
0.037642635 -0.029338783 0.061177447 0.020084416 0.058615327 -0.0212748 0.035836536 0.045023255
-0.003452038 -0.002242402 0.006601783 -0.0041673426 0.06709128 -0.0084945215 0.017220343 -0.01773229
0.02207504 0.02639815 0.045422565 0.031859778 0.036728624 0.019485272 -0.026490197 -0.028227802
00000000: a4c8 18bd 9929 a6bb 227b 8e3d 6b59 453c
00000010: 85af f7bc 7958 25bc 01b1 533d bb2c 84bc
00000020: 020b 403c 71fc 9b3d 1c4a 153d 446e 473d
00000030: b783 803d e185 153d b70a e0bb 4bc9 8d3d
00000040: 18d4 5a3d 2582 973d 57ef 17bc 3202 553d
00000050: 1d60 9a3c 7ad0 003d 5321 d9bb ed6a ddba
00000060: dbfd 253d cd36 d73a 210c b9bc ba3d aabc
00000070: 3646 923c 6c5d b2bc 780f 763d 573b ce3b
00000080: e8fe 35bd 645c dc3b 2058 febc f507 803d
00000090: 0a24 1fbc 46b8 453c 23dd a4ba c55b 10bd
000000a0: f0fa 51bc fe0a d93c 20b7 503a fc97 113c
000000b0: b0ab e93c fa43 1b3d cdd2 ddb9 630f 493d
000000c0: 4315 263d 1034 fc3c 7580 d43c 5e34 abbc
000000d0: fffd b93c 8b9b b2bc 7e65 ae3b 14aa aa3c
000000e0: 21d4 d03c c308 723d c53f 613d 7d98 543b
000000f0: de91 be3c 6f8e 85bc 7743 da3c 97d0 253d
00000100: 5056 8a3c 4ed7 1a3d 70ad 053d 378f f93a
00000110: f5c2 353d 8ee2 223d a110 603d 9bde c43b
00000120: 2ce7 a6bc 5680 893d 2411 5a3d 01be 223d
00000130: d9d2 b33a f22f 7c3d 1a2d cdbb bf50 663d
00000140: 9ecb b23c 3561 db3c 7f53 0e3c eb63 693d
00000150: 753a 973b 5065 523b d366 8e3d 9f98 79bc
00000160: 75e6 dd3b 061c 863c d7ea 9dbd bd22 163d
00000170: 9b19 6cbc d292 8ebb ea60 c0bb e3fc b53c
00000180: ecaa 133d 623b 0abd d3fe 313d 4bf8 acbc
00000190: 596b c73c 9f7f bf3c ca92 753c 5943 493d
000001a0: c134 213d 3922 cb3c 954b 33bc b955 f7bc
000001b0: 1a95 c0bc 5cbf 81bc 0383 b23b 61ea bd3c
000001c0: e5ce fd3c a3c2 35bc cf18 a7bc 6bbf 9c3c
000001d0: c723 393c f561 53bc 9d16 70bd 53cc 613b
000001e0: 4ad2 283d 02c5 74bc dc15 ce3c 04cd 98bc
000001f0: 12f2 c93c ab52 9ebb 782d 37bc 45d3 813c
00000200: 411c 4dbc 5870 fe39 0cb7 97bb 384c 043d
00000210: 9b95 523d 492b 2f3d 582c a2bc fbb7 d6bc
00000220: b3f7 283d da9b 363d da24 513c f234 e03c
00000230: 4753 9e3b fcd0 553c 1e79 30bd 413d 6a3c
00000240: 8649 bd3c f873 a23c a0fa e1bc eb12 683c
00000250: e31f e53b 7f6e 8cbc d900 1b3d 61ae 4c3a
00000260: ed5d 9a3b 446d bfbc 9903 1bbd 7947 b9bc
00000270: f067 de3b c0d4 0e3d 387f 513a 2e8e 2ebd
00000280: cddc 283b 58b6 02bd 450e 8dbc 02b8 fd3c
00000290: 2c4e 3e3c d4d7 633c 9e45 873c d20f 46bb
000002a0: c042 653d 2602 e9bc 15c3 b33c fe15 523d
000002b0: b3aa a4bc b78f 253d eb20 d6ba 5846 c6bc
000002c0: 7555 183d 8583 543d 6824 263d 4c3c 6d3c
000002d0: d6c5 8e3c c810 d3bb 9a5f 66bd 7052 393c
000002e0: fab3 c6bb f506 1a3d 7cfb 6c3c 5ed6 c63c
000002f0: e453 a83d dc1c e7bc b857 7c3d a729 dfbc
00000300: 1ddd 113d bea1 54bc c32c 62bc 9143 5a3c
00000310: 5c7c 033d 1853 ff3c 7f8c 1abc 98f4 c43c
00000320: 7a39 14bc 79a8 ad3c 6550 62bc 46c8 423d
00000330: afc9 223d 7609 923c 1976 643d 1283 be3b
00000340: 971c 623d 4e9c 53bb 4682 9e3c 830c 243d
00000350: dcd9 473d b6e9 583b 4611 04bc cef4 6dbb
00000360: 7c6e 2ebd 1a5b 803c bc5c 25bd 7300 1d3d
00000370: 341c 6cbb 5bff 1a3c 7015 b6bc 2b06 00bd
00000380: aec9 10bc fdd8 033d 5b3a a03c 3a83 dc3c
00000390: c87a e73c 6d49 823d 6a79 12bd e326 483d
000003a0: 2a2f 1a3d e357 f0bc 3495 7a3d 1388 a43c
000003b0: a016 703d 7d48 aebc 55c9 123d 4e6a 383d
000003c0: 963b 62bb 43f5 12bb c553 d83b 348e 88bb
000003d0: 2767 893d 9b2c 0bbc ad11 8d3c 4f43 91bc
000003e0: b7d6 b43c ef40 d83c 030d 3a3d 667f 023d
000003f0: c170 163d 949f 9f3c f801 d9bc fe3d e7bc

model_2/encoder_2/base_q_dense_var_len_4/var_len_batch_normalization_12/batchnorm/mul_1 f4 [64, 512]
-0.11232022 0.022162445 -0.07023098 -0.1330134 -0.110739216 -0.05290404 -0.018681848 0.016399236
0.017664138 -0.016781798 -0.024300668 -0.061403863 -0.051222984 -0.045390952 0.03151212 0.04227873
0.050624203 -0.058446046 0.017123055 -0.10966378 0.07290318 0.033904273 -0.09847794 0.016157206
0.15786114 -0.032848008 -0.06502345 0.090003096 0.056424964 -0.016420208 0.07097785 -0.14211433
0.038766995 0.07312508 0.05287605 -0.07570544 0.034024313 -0.035236023 0.10903853 0.09420948
0.03940696 -0.10837456 0.13262053 0.022697102 0.121243045 0.066315 0.024251949 0.0015208337
0.004582787 -0.10250752 -0.035102002 -0.09923131 -0.0048788316 -0.049479067 -0.11875758 0.01761316
0.1083652 -0.020347808 -0.11801314 0.071428664 0.05763341 0.10856105 -0.021428201 -0.053972237
0.0730529 0.029037466 0.028460803 -0.074631535 -0.0069910623 0.0026616547 0.07331439 -0.04673963
-0.1059258 -0.10386695 -0.07313055 -0.053847935 0.0027204228 0.08700978 -0.04695722 -0.055035833
0.051038273 -0.12168252 -0.08155058 -0.020104863 0.1456656 0.09437364 -0.052443158 0.04583459
-0.072353624 0.021981277 0.019441692 -0.011616343 -0.02880613 0.1394954 0.052607074 -0.10689572
0.04335401 0.090743236 0.009535586 -0.012028954 -0.05128899 -0.013540034 0.0011988303 0.013872586
-0.053040937 -0.08088196 -0.06755056 -0.078789145 0.023649108 0.027316814 -0.08063166 -0.06544174
-0.015452707 0.030699082 -0.0026232644 0.008037003 0.0071338634 0.026103197 0.008335397 0.07615369
-0.00660832 -0.0057392237 -0.015285229 -0.10677574 0.00015832068 -0.047565635 -0.030042738 -0.039875757
-0.066401854 -0.0006683225 -0.08055646 0.0010229157 -0.005280024 0.036655586 -0.037046082 -0.1317514
-0.070145145 -0.04589412 0.07120902 -0.057974983 0.07890893 -0.10819192 0.0001070932 -0.0374213
0.03248351 0.04135461 -0.093278944 -0.040634472 -0.06143906 -0.10773394 0.01209849 0.0021668249
-0.06597634 -0.009526993 0.045871764 0.008914299 -0.01708918 0.080490306 0.08315175 -0.008803476
0.028934963 0.0010875997 0.044090837 -0.10550349 -0.1246374 -0.011565931 0.06658434 0.09267519
0.04966537 0.023974378 0.014703528 -0.006188653 0.036914367 0.05973752 0.014062397 0.022350347
0.029926281 -0.0621237 0.017997213 0.15972474 -0.035837486 -0.0034455073 -0.029396778 0.036236387
0.016114712 -0.064963564 -0.033380426 0.07137683 0.055402115 -0.0271571 0.04194223 -0.011839453
-0.0040659388 -0.000470781 -0.11628403 0.005359551 -0.07985004 0.011341777 -0.08386422 -0.03606187
-0.032484185 0.08078663 -0.07008423 -0.045421455 0.026422624 0.094692275 0.066568255 0.030652788
0.09245552 0.04513251 0.073934555 -0.088695005 0.024856994 0.1308639 -0.028321266 -0.004413727
-0.032218896 0.08824919 0.03281153 0.03144202 0.036671758 -0.0267092 0.100537084 -0.07926632
-0.123968504 -0.021278163 0.021994472 0.011448738 -0.058159843 -0.09014668 -0.010662842 -0.058824096
-0.052743807 0.041526448 -0.050453994 0.025768999 0.053079955 -0.051887754 -0.10034098 -0.07267254
-0.10188707 0.024876108 -0.030105101 -0.10384234 -0.07678853 -0.00411228 0.007714426 0.031192562
-0.08455307 0.005169367 0.053609326 -0.056639172 -0.018496707 0.048781827 0.065636896 -0.028854597
00000000: 2508 e6bd 048e b53c 43d5 8fbd aa34 08be
00000010: 3ecb e2bd e8b1 58bd ad0a 99bc b157 863c
00000020: 62b4 903c fb79 89bc 3212 c7bc 9e82 7bbd
00000030: 31cf 51bd ddeb 39bd da12 013d 762c 2d3d
00000040: 535b 4f3d 1f65 6fbd a645 8c3c 6797 e0bd
00000050: 434e 953d 35df 0a3d cdae c9bd 1e5c 843c
00000060: 5aa6 213e a28b 06bd 042b 85bd 8b53 b83d
00000070: dd1d 673d ac83 86bc d65c 913d 6b86 11be
00000080: 24ca 1e3d 9ac2 953d 8f94 583d 740b 9bbd
00000090: 145d 0b3d a653 10bd 984f df3d e6f0 c03d
000000a0: 3169 213d 7bf3 ddbd adcd 073e 46ef b93c
000000b0: 464e f83d 29d0 873d 06ac c63c b656 c73a
000000c0: 342b 963b 76ef d1bd 1ec7 0fbd c939 cbbd
000000d0: 9bde 9fbb 90aa 4abd 2d37 f3bd 7949 903c
000000e0: 93ee dd3d 72b0 a6bc e0b0 f1bd 3149 923d
000000f0: 0311 6c3d 4155 de3d 328a afbc fe11 5dbd
00000100: c29c 953d fbdf ed3c a126 e93c 6bd8 98bd
00000110: 4815 e5bb 286f 2e3b db25 963d 0e72 3fbd
00000120: a0ef d8bd 32b8 d4bd 78c5 95bd a78f 5cbd
00000130: 1f49 323b 2f32 b23d 3756 40bd 416d 61bd
00000140: 820d 513d af34 f9bd fe03 a7bd f4b2 a4bc
00000150: 5d29 153e f846 c13d a3ce 56bd 0dbd 3b3d
00000160: 232e 94bd 1412 b43c 2f44 9f3c 7952 3ebc
00000170: d5fa ebbc e2d7 0e3e 847a 573d 25ec dabd
00000180: f993 313d 97d7 b93d 263b 1c3c 1715 45bc
00000190: 6714 52bd 05d7 5dbc 1222 9d3a d849 633c
000001a0: 7441 59bd 71a5 a5bd f357 8abd 345c a1bd
000001b0: c6bb c13c 83c7 df3c 3622 a5bd 5206 86bd
000001c0: 5a2d 7dbc a47c fb3c 13eb 2bbb a2ad 033c
000001d0: 2fc3 e93b 5fd6 d53c 3091 083c 77f6 9b3d
000001e0: 9b8a d8bb 1910 bcbb e66e 7abc 3dad dabd
000001f0: e202 2639 2fd4 42bd 301c f6bc c354 23bd
00000200: b2fd 87bd 5d32 2fba c9fa a4bd 5b13 863a
00000210: 0d04 adbb 2b24 163d a2bd 17bd d7e9 06be
00000220: 42a8 8fbd 79fb 3bbd 09d6 913d 2d77 6dbd
00000230: 019b a13d ba93 ddbd 3997 e038 1447 19bd
00000240: 6e0d 053d 7463 293d 0809 bfbd 5570 26bd
00000250: 86a7 7bbd 9da3 dcbd bf38 463c 4a01 0e3b
00000260: 9a1e 87bd 1b17 1cbc 08e4 3b3d 480d 123c
00000270: 9cfe 8bbc 1ad8 a43d 774b aa3d 743c 10bc
00000280: 0409 ed3c ca8d 8e3a 9898 343d 3712 d8bd
00000290: e541 ffbd 087f 3dbc 5f5d 883d 7dcc bd3d
000002a0: ea6d 4b3d ea65 c43c 11e7 703c 2fca cabb
000002b0: 8533 173d 54af 743d f865 663c 1318 b73c
000002c0: f627 f53c 6c75 7ebd e46e 933c e28e 233e
000002d0: 54ca 12bd 05ce 61bb 83d1 f0bc 9b6c 143d
000002e0: 0003 843c 9e0b 85bd eab9 08bd 042e 923d
000002f0: 54ed 623d 9178 debc 9ecb 2b3d 44fa 41bc
00000300: 913b 85bb 28d3 f6b9 5226 eebd 2c9f af3b
00000310: 6b88 a3bd dcd2 393c 01c1 abbd 9db5 13bd
00000320: 230e 05bd 7673 a53d 5288 8fbd d90b 3abd
00000330: 4274 d83c 06ee c13d f054 883d 8e1b fb3c
00000340: 5259 bd3d dedc 383d 006b 973d baa5 b5bd
00000350: e5a0 cb3c 3001 063e 0002 e8bc 07a1 90bb
00000360: f6f7 03bd febb b43d 6265 063d 59c9 003d
00000370: 2035 163d 41cd dabc 63e6 cd3d 6156 a2bd
00000380: 33e3 fdbd 8b4f aebc c02d b43c 7d93 3b3c
00000390: 0439 6ebd d39e b8bd 33b3 2ebc 89f1 70bd
000003a0: e409 58bd a317 2a3d d9a8 4ebd 8219 d33c
000003b0: 5e6a 593d 4188 54bd 927f cdbd 57d5 94bd
000003c0: 2baa d0bd fbc8 cb3c f99e f6bc 4bab d4bd
000003d0: 4e43 9dbd 4ec0 86bb 4cc9 fc3b 8b87 ff3c
000003e0: 292a adbd cb63 a93b 7495 5b3d 7afe 67bd
000003f0: 6886 97bc 74cf 473d a36c 863d 7a60 ecbc

model_2/encoder_2/base_q_dense_var_len_5/var_len_batch_normalization_13/batchnorm/mul_1 f4 [64, 512]
-0.046610292 0.11065005 0.056762025 0.08084145 0.026839314 -0.066880666 -0.0077409963 0.058437437
0.07936637 0.031538416 0.07281966 0.10045674 0.08309783 -0.10103335 -0.0128013855 -0.12119203
0.087805085 0.07952174 0.03358612 0.015801676 -0.01116928 0.009218411 -0.022157777 0.009427695
0.039440542 -0.05499553 0.06637953 -0.09123615 -0.0472172 0.090195 0.0553572 0.08837623
-0.053187586 -0.10272637 0.09134131 -0.11275064 -0.057667237 0.027584607 -0.047554053 0.01990491
0.022077292 -0.06714806 -0.015211168 0.05590847 -0.038587924 -0.150973 -0.011481655 -0.11018691
-0.04943653 -0.087854795 0.08563059 -0.024105867 -0.06454418 0.021163553 -0.03327584 -3.46904e-05
-0.02482139 0.018850397 -0.050048705 -0.02541199 -0.006142147 -0.09551888 -0.10838425 -0.041188452
-0.10079982 0.08412187 -0.07456513 -0.013151848 -0.057574857 0.0004502744 -0.028190892 -0.06375423
0.04213949 -0.08380635 -0.012434518 -0.022293668 -0.0013673656 0.066358276 -0.0035636672 0.07082242
0.09579065 -0.011487061 -0.07116527 0.09597299 0.06587925 -0.06343926 0.025680117 -0.018975893
0.071530595 0.050899718 -0.07295636 0.029740391 0.013712369 0.11230582 -0.06761436 -0.03422316
-0.057872433 -0.010058917 -0.102768965 0.027938563 -0.07448799 0.034214705 -0.04510106 -0.08872721
0.06858159 0.08122786 0.032314196 0.06282138 0.046424907 -0.12065637 -0.05906909 -0.09962933
0.07239092 -0.022322817 0.07229535 -0.10312931 -0.06891386 0.09337671 0.04743368 -0.037763566
-0.0025177153 0.03474395 0.034083452 0.063285045 0.034410182 -0.1250675 -0.10711021 -0.0055118827
-0.006432993 0.05577667 -0.047265287 0.058557656 -0.003003915 0.056800377 0.013016137 0.02947946
0.0058904695 0.076267414 0.04927335 0.0026204416 0.008881808 0.08337159 0.007294292 0.03336426
0.020128 -0.07110083 0.08852719 -0.060362633 0.055087265 -0.0353407 0.04041828 -0.02384737
0.05745328 -0.002541346 0.055175457 -0.03546864 0.0708387 -0.03671898 0.08702813 -0.013171835
0.11864634 0.024551317 -0.08865215 0.06993671 -0.03934984 -0.054430503 -0.068049826 0.08415483
-0.06360367 -0.013235398 0.025890702 -0.050005924 0.073966265 -0.06319902 0.089434594 0.087445185
0.0108704325 -0.09366958 -0.14250994 0.030654663 -0.029772673 0.012609138 0.07332295 0.085400514
-0.06367168 -0.08058355 0.004155619 0.016685268 -0.0032103856 0.014691228 0.0002894497 -0.011638266
-0.018296769 -0.09140339 0.001321903 0.12530978 -0.052492894 -0.0054458915 -0.037374273 0.07177895
-0.091717 0.060535405 0.012856053 0.13287312 0.05204253 -0.032225855 0.033950087 -0.07491278
-0.07505953 0.00035018133 0.087630175 -0.017779613 0.07854622 0.0037263737 0.12195894 0.09870573
-0.016497824 -0.036727652 0.055818666 0.07673123 -0.014175571 -0.0016237564 -0.034829978 0.022616064
-0.007739373 0.09112271 0.11517639 -0.14072043 0.09933665 0.062048778 0.04473818 -0.044234432
0.049010947 -0.014749219 -0.04266548 -0.08036048 0.01898501 -0.039200716 0.008721997 -0.059743993
0.08873419 -0.07207269 0.0500332 -0.01925803 -0.03614424 -0.039512128 -0.047544412 -0.11076327
0.11423862 0.007143659 0.083242044 -0.053617835 -0.048313305 0.079278626 -0.052246988 0.030068574
00000000: 6fea 3ebd 7e9c e23d 4c7f 683d 3490 a53d
00000010: 1fde db3c bbf8 88bd 2fa8 fdbb 185c 6f3d
00000020: d68a a23d 6d2e 013d 7922 953d 43bc cd3d
00000030: 322f aa3d 93ea cebd e7bc 51bc 8733 f8bd
00000040: 27d3 b33d 4bdc a23d 9991 093d 8472 813c
00000050: 5bff 36bc d108 173c 3a84 b5bc 9e76 1a3c
00000060: 688c 213d fe42 61bd fef1 873d 05da babd
00000070: d366 41bd 28b8 b83d 3bbe 623d 99fe b43d
00000080: 3adb 59bd 3462 d2bd 2711 bb3d cfe9 e6bd
00000090: 7b34 6cbd 1df9 e13c 0ac8 42bd 9f0f a33c
000000a0: 70db b43c ec84 89bd 4338 79bc 4800 653d
000000b0: 5f0e 1ebd ab98 1abe 8d1d 3cbc ada9 e1bd
000000c0: f57d 4abd 37ed b3bd 175f af3d ab79 c5bc
000000d0: bd2f 84bd 305f ad3c 3f4c 08bd 8980 11b8
000000e0: 3a56 cbbc 266c 9a3c dfff 4cbd ce2c d0bc
000000f0: 1044 c9bb 679f c3bd 90f8 ddbd 39b5 28bd
00000100: 2370 cebd 1648 ac3d 9ab5 98bd d97a 57bc
00000110: 9dd3 6bbd cf12 ec39 96f0 e6bc 9491 82bd
00000120: 759a 2c3d aaa2 abbd 26ba 4bbc 36a1 b6bc
00000130: 2d39 b3ba d9e6 873d 6a8c 69bb 580b 913d
00000140: e32d c43d 3a34 3cbc 19bf 91bd 7d8d c43d
00000150: b3eb 863d 71ec 81bd 1c5f d23c 5573 9bbc
00000160: a27e 923d 397c 503d 256a 95bd 1fa2 f33c
00000170: d8a9 603c 9800 e63d 6679 8abd 962d 0cbd
00000180: a50b 6dbd 28ce 24bc 8978 d2bd 6adf e43c
00000190: 298d 98bd b824 0c3d e4bb 38bd 9db6 b5bd
000001a0: 8174 8c3d cb5a a63d e45b 043d 7fa8 803d
000001b0: 0b28 3e3d b01a f7bd 6ef2 71bd 760a ccbd
000001c0: b141 943d 57de b6bc 960f 943d 7635 d3bd
000001d0: b622 8dbd 4a3c bf3d d249 423d f8ad 1abd
000001e0: 4100 25bb ac4f 0e3d 179b 0b3d 979b 813d
000001f0: b1f1 0c3d b211 00be 995c dbbd 069d b4bb
00000200: dbcb d2bb 1476 643d 3f99 41bd 27da 6f3d
00000210: 55dd 44bb 83a7 683d a341 553c e97e f13c
00000220: d704 c13b 1732 9c3d dad2 493d b7bb 2b3b
00000230: 0185 113c b9be aa3d f504 ef3b f6a8 083d
00000240: 7ae3 a43c 509d 91bd be4d b53d cf3e 77bd
00000250: 2fa3 613d 69c1 10bd a38d 253d 8f5b c3bc
00000260: 2154 6b3d b68c 26bb a9ff 613d 9147 11bd
00000270: e113 913d a466 16bd ce3b b23d aece 57bc
00000280: dafc f23d d81f c93c 428f b5bd fa3a 8f3d
00000290: 4c2d 21bd 85f2 5ebd b55d 8bbd 5e59 ac3d
000002a0: a442 82bd 48d9 58bc bd18 d43c 03d3 4cbd
000002b0: a07b 973d 7d6e 81bd 7c29 b73d 7616 b33d
000002c0: e619 323c d6d5 bfbd 20ee 11be 7d1f fb3c
000002d0: d2e5 f3bc 8f96 4e3c 582a 963d 77e6 ae3d
000002e0: 4c66 82bd fd08 a5bd dc2b 883b 8baf 883c
000002f0: 5565 52bb 7ab3 703c 48c1 9739 6dae 3ebc
00000300: 1be3 95bc b331 bbbd b443 ad3a 3551 003e
00000310: ca02 57bd 7373 b2bb c415 19bd d800 933d
00000320: 1fd6 bbbd f9f3 773d 32a2 523c e40f 083e
00000330: 8c2a 553d 42ff 03bd 3f0f 0b3d df6b 99bd
00000340: d0b8 99bd 8b98 b739 7377 b33d 8da6 91bc
00000350: d7dc a03d 2d36 743b 9cc5 f93d 3b26 ca3d
00000360: 7226 87bc bc6f 16bd 1da2 643d 4325 9d3d
00000370: a740 68bc 39d4 d4ba e1a9 0ebd 5345 b93c
00000380: 919a fdbb 8b9e ba3d 99e1 eb3d 0419 10be
00000390: 0371 cb3d dc26 7e3d 623f 373d 2a2f 35bd
000003a0: b4bf 483d b5a6 71bc 00c2 2ebd 0994 a4bd
000003b0: 7486 9b3c ee90 20bd b5e6 0e3c 1eb6 74bd
000003c0: 45ba b53d d99a 93bd 9def 4c3d 04c3 9dbc
000003d0: fc0b 14bd 78d7 21bd eebd 42bd dad7 e2bd
000003e0: f0f5 e93d 5b15 ea3b ce7a aa3d 609e 5bbd
000003f0: 2ce4 45bd d55c a23d f000 56bd 5f52 f63c
